Python/server/utils/Data/AI/STAR_AI_v2.pth (torch, 42361 bytes, 6 tensors)

net.0.weight f4 [128, 10]
0.030891767 -0.22559391 0.37751582 0.59072393 -0.20552592 0.3139798 0.082526006 1.1209608
-0.046890244 0.07407074 0.2956624 0.46479645 0.40640312 0.1115663 0.42843357 -0.018750902
-0.39411584 -0.3002635 -0.14630537 0.17431246 -0.1655475 0.19737446 0.1983429 0.14034994
0.0053534117 -0.18626122 0.015053525 0.3429176 -0.4441161 -0.0772708 0.19533634 -0.43406692
0.16485293 0.29662055 -0.11568448 0.09181739 0.35070625 0.10488098 -0.020635307 0.04224505
-0.089693494 -0.506335 -0.26458123 0.09943571 0.24814747 -0.24524483 -0.08590297 0.05838855
-0.00028796337 -0.036279116 -0.4281838 -0.08573996 0.02129652 0.251495 -0.036128335 0.37031937
-0.013640616 -0.46606997 -0.12867522 -0.03595301 1.0803562 -0.12322615 0.3328756 0.07662329
-0.14064522 -0.19983545 0.0649991 0.52322876 -0.08994273 0.015354215 0.05291475 0.0020647193
0.33474723 0.53575313 0.010607678 0.2501065 0.11436359 -1.2052463 0.04606848 -0.02934685
-0.012812287 -0.5789005 0.042249613 0.11022353 0.37177685 -0.85896814 -0.15726486 0.5326254
0.048828345 0.044783782 -0.8755691 0.22288468 0.31482616 -0.4412081 0.12104969 0.0906183
-0.075836144 -0.68828213 0.21483071 0.08654872 0.40383595 0.11607322 -0.03908297 0.36038858
0.0067386343 0.029019646 0.19657151 -0.37842292 0.12507759 -0.33281946 -0.11467433 -0.2096225
0.17624272 -1.4146178 -0.07297868 0.2760133 -0.12995885 0.10237043 0.26646408 -0.33209684
0.3991782 -0.20281902 0.43669462 0.432399 -0.22384112 0.022445213 0.0678861 0.49388987
-0.1830656 0.15239011 -0.4338457 0.104071446 0.8130534 0.025585236 0.14176923 -0.36538285
0.045920033 0.045935173 -0.03349384 -0.017946271 -0.24628276 -0.54464555 0.2823732 0.4042706
-0.30509096 0.22707903 0.18812896 -0.4251824 -0.08534326 -0.13174553 -0.7375565 0.31068578
-0.3662869 0.14793836 0.25545335 -0.17885417 -0.09441558 -1.3365057 0.0036580868 0.00760036
0.045096744 -0.063076705 -0.37778327 0.12908533 -0.014934829 0.6150328 -0.029231898 -0.53781015
0.032627117 0.03416963 -0.45610273 -0.29871687 -0.26290622 0.38559103 0.027289405 -0.18210588
-0.052227795 0.78185827 -0.056046207 0.379755 -0.4972753 0.016753707 -0.3272587 -2.366863
-0.0142891845 0.070812926 0.003016588 0.1481877 -0.3002988 0.35446692 0.057238746 -0.2987887
0.2751884 -2.7125936 -0.11649697 -0.23026174 0.086904034 0.46366894 0.0028735204 -0.019351149
-0.4188202 0.4670566 0.7941744 0.3080653 0.22769117 -0.102272496 -0.27571452 0.25067568
-0.052230347 -0.013191287 -0.64799136 0.007958607 0.35806742 -0.10711615 0.17048992 0.11702397
-0.050802987 -0.7587259 -0.061702043 0.034147017 0.2204512 0.10695726 0.5401275 0.15554476
0.07397898 -0.10331651 -0.27783012 0.5045482 0.22632006 0.06403466 -0.032877572 0.25990182
0.41096273 0.077794075 0.03984725 0.25161377 -0.13882442 0.4149997 -0.33299214 -0.22723868
0.086737804 0.012252865 -0.091099836 -0.06976881 0.020686556 -0.16524972 -0.051711015 0.64936703
-0.20109428 -0.027324975 0.42499188 0.04123068 0.15460163 -0.680776 0.11662962 -0.45304063
00000000: bb10 fd3c 1702 67be c149 c13e af39 173f
00000010: 6375 52be f6c1 a03e 6503 a93d a57b 8f3f
00000020: fc0f 40bd 66b2 973d 1061 973e cdf9 ed3e
00000030: 1214 d03e df7c e43d a55b db3e 7e9b 99bc
00000040: 8dc9 c9be 23bc 99be 13d1 15be f77e 323e
00000050: 4985 29be 881c 4a3e 671a 4b3e e5b7 0f3e
00000060: ac6b af3b 43bb 3ebe 0fa3 763c e592 af3e
00000070: 2f63 e3be 2740 9ebd 4006 483e 053e debe
00000080: 35cf 283e a6de 973e fceb ecbd c10a bc3d
00000090: c58f b33e d7cb d63d 600b a9bc 2509 2d3d
000000a0: 39b1 b7bd 2c9f 01bf 3177 87be f3a4 cb3d
000000b0: 5f1a 7e3e 7621 7bbe e5ed afbd d528 6f3d
000000c0: caf9 96b9 6999 14bd e83a dbbe 6f98 afbd
000000d0: 0a76 ae3c f4c3 803e 4efb 13bd 809a bd3e
000000e0: e47c 5fbc b9a0 eebe 70c3 03be 7743 13bd
000000f0: 1d49 8a3f fe5d fcbd ac6e aa3e acec 9c3d
00000100: 4d05 10be aaa1 4cbe 401e 853d 52f2 053f
00000110: e533 b8bd 3f90 7b3c 23bd 583d 3e50 073b
00000120: fd63 ab3e 1e27 093f d4cb 2d3c f60d 803e
00000130: 7537 ea3d 8345 9abf 4db2 3c3d ce68 f0bc
00000140: a0ea 51bc d332 14bf ee0d 2d3d e0bc e13d
00000150: 8959 be3e 56e5 5bbf 0a0a 21be 235a 083f
00000160: 3b00 483d 336f 373d 4c25 60bf e23b 643e
00000170: e530 a13e 07e6 e1be e6e8 f73d 1696 b93d
00000180: fb4f 9bbd 4233 30bf 95fc 5b3e 7540 b13d
00000190: 96c3 ce3e ccb7 ed3d 7715 20bd da84 b83e
000001a0: c3cf dc3b 9cba ed3c 0b4a 493e a6c0 c1be
000001b0: 5714 003e 5067 aabe 60da eabd 48a7 56be
000001c0: f978 343e 3212 b5bf d975 95bd 9e51 8d3e
000001d0: ef13 05be 97a7 d13d fb6d 883e 9908 aabe
000001e0: 1661 cc3e caaf 4fbe 7096 df3e 6763 dd3e
000001f0: 9b36 65be 06df b73c de07 8b3d 22df fc3e
00000200: 8c75 3bbe 270c 1c3e 0621 debe 6923 d53d
00000210: 4524 503f 2198 d13c f42b 113e 7613 bbbe
00000220: a516 3c3d 8526 3c3d d630 09bd 0f04 93bc
00000230: 8c31 7cbe e46d 0bbf 3893 903e 8efc ce3e
00000240: e234 9cbe 6887 683e e1a4 403e 82b1 d9be
00000250: 72c8 aebd 4de8 06be 81d0 3cbf 3512 9f3e
00000260: f589 bbbe 277d 173e c8ca 823e 8c25 37be
00000270: f55c c1bd 9e12 abbf 83bc 6f3b 710c f93b
00000280: 5db7 383d 5c2e 81bd cf6c c1be f22e 043e
00000290: 37b1 74bc ca72 1d3f bc77 efbc edad 09bf
000002a0: 03a4 053d 74f5 0b3d 4c86 e9be 6bf1 98be
000002b0: a59b 86be 306c c53e 088e df3c f779 3abe
000002c0: d0ec 55bd dd27 483f b590 65bd 3f6f c23e
000002d0: de9a febe 123f 893c 748e a7be af7a 17c0
000002e0: 2f1d 6abc 5e06 913d f3b1 453b 84be 173e
000002f0: c4c0 99be b07c b53e 2d73 6a3d d5fa 98be
00000300: 7ee5 8c3e 229b 2dc0 f795 eebd bcc9 6bbe
00000310: befa b13d 0466 ed3e ac51 3c3b 4d86 9ebc
00000320: 9a6f d6be 0b22 ef3e 034f 4b3f bcba 9d3e
00000330: e027 693e 3e74 d1bd 742a 8dbe 9058 803e
00000340: 7def 55bd 4520 58bc c3e2 25bf d164 023c
00000350: 9d54 b73e b65f dbbd e994 2e3e 43aa ef3d
00000360: cb16 50bd dc3b 42bf 48bb 7cbd bedd 0b3d
00000370: f6bd 613e 680c db3d cc45 0a3f 2047 1f3e
00000380: 4b82 973d 9b97 d3bd c03f 8ebe 122a 013f
00000390: 72c0 673e 9b24 833d a2aa 06bd da11 853e
000003a0: b569 d23e 8052 9f3d df36 233d 85d3 803e
000003b0: fd27 0ebe d77a d43e f27d aabe 42b1 68be
000003c0: 97a3 b13d 3ec0 483c 8d92 babd f3e2 8ebd
000003d0: da76 a93c 3937 29be eece 53bd eb3c 263f
000003e0: a9eb 4dbe a0d8 dfbc 8998 d93e 80e1 283d
000003f0: e44f 1e3e 5647 2ebf 83db ee3d f1f4 e7be

net.0.bias f4 [128]
0.057458453 -0.20495746 -0.3746328 -0.10949789 -0.3864518 -0.28404656 -0.043367006 -0.018616907
-0.36041033 -0.07125694 -0.30906543 -0.09340448 0.114795886 0.10353195 -0.5514887 -0.22764601
-0.08965139 -0.26103774 -0.11418541 0.059834573 0.025792014 0.045119792 -0.09231523 -0.47906587
0.22189097 0.002831145 -0.50261676 -0.029565712 -0.11397536 -0.20279817 -0.3034311 0.062110588
-0.3387644 0.002134759 -0.05960841 0.0041678688 -0.09247395 -0.003341685 -0.683033 -0.319241
0.0014988261 -0.07853204 -0.19654424 -0.33964568 -0.21767603 -0.064607404 -0.054955993 -0.07125593
0.07189262 -0.47972223 -0.08645343 -0.03176475 0.05276912 -0.40064985 -0.33197457 0.06082341
-0.010305485 -0.42770553 -0.01652316 -0.24977663 -0.08579419 -0.16527797 -0.039272174 -0.2768025
0.004063862 -0.26111504 -0.017938681 -0.1526831 -0.43737483 -0.40229496 -0.13094027 -0.24979307
0.124407135 -0.20204681 -0.025838662 -0.050602652 -0.35485682 -0.11797399 -0.16865645 -0.04964217
-0.30731797 0.1003664 -0.29410303 -0.02682935 -0.45516774 -0.36877432 -0.2971972 -0.21109973
-0.116830856 0.05725555 0.05043335 -0.55007935 0.13722827 -0.33607683 -0.17062388 -0.24009714
-0.446477 -0.1118539 -0.12279878 -0.0023719678 0.049540445 -0.45063874 -0.06875832 -0.15405977
-0.18575229 -0.16517173 -0.21792543 -0.094471484 -0.20285678 -0.039060127 -0.035090555 -0.07955321
-0.045501996 -0.22287293 0.038995482 -0.31164575 -0.21830937 -0.1411257 -0.30179042 0.037421454
-0.5769787 -0.34727997 -0.15101555 -0.10651825 -0.1340016 -0.2015478 -0.18089193 0.034243725
00000000: 8e59 6b3d 5ee0 51be dfcf bfbe 6e40 e0bd
00000010: 03dd c5be 8d6e 91be 9aa1 31bd 7c82 98bc
00000020: b487 b8be 29ef 91bd d33d 9ebe d94a bfbd
00000030: 1b1a eb3d 8f08 d43d 5d2e 0dbf 091c 69be
00000040: 269b b7bd bda6 85be 0ada e9bd 1915 753d
00000050: c649 d33c 88cf 383d c40f bdbd 1f48 f5be
00000060: 6337 633e bb8a 393b 7eab 00bf cb33 f2bc
00000070: ea6b e9bd 53aa 4fbe 525b 9bbe ac67 7e3d
00000080: 8772 adbe 50e7 0b3b f327 74bd 9e92 883b
00000090: fb62 bdbd 2c00 5bbb 40db 2ebf 8e73 a3be
000000a0: 4274 c43a 68d5 a0bd e542 49be 0ae6 adbe
000000b0: 77e6 5ebe e350 84bd 8919 61bd a1ee 91bd
000000c0: 703c 933d 279e f5be 7f0e b1bd c11b 02bd
000000d0: 6f24 583d fa21 cdbe 92f8 a9be f821 793d
000000e0: 56d8 28bc 38fc dabe 945b 87bc 72c5 7fbe
000000f0: ddb4 afbd a13e 29be dcdb 20bd 0fb9 8dbe
00000100: 252a 853b dfb0 85be 24f4 92bc f558 1cbe
00000110: 98ef dfbe 9bf9 cdbe 3515 06be c1c9 7fbe
00000120: 2bc9 fe3d 5ce5 4ebe 9aab d3bc ba44 4fbd
00000130: cbaf b5be 599c f1bd 47b4 2cbe 9755 4bbd
00000140: c858 9dbe e68c cd3d ac94 96be 3ac9 dbbc
00000150: bf0b e9be fdcf bcbe 3b2a 98be 872a 58be
00000160: 0445 efbd cc84 6a3d 3393 4e3d 00d2 0cbf
00000170: 9185 0c3e 4312 acbe 07b8 2ebe 06dc 75be
00000180: a298 e4be a813 e5bd ed7d fbbd 0473 1bbb
00000190: ecea 4a3d 1fba e6be 29d1 8cbd d8c1 1dbe
000001a0: d935 3ebe c722 29be d827 5fbe 447a c1bd
000001b0: b0b9 4fbe 83fd 1fbd 1dbb 0fbd cbec a2bd
000001c0: 4d60 3abd cd38 64be bab9 1f3d 0890 9fbe
000001d0: 7e8c 5fbe 4183 10be 4684 9abe 3d47 193d
000001e0: e0b4 13bf aece b1be d2a3 1abe 3e26 dabd
000001f0: b737 09be 8c62 4ebe bc3b 39be 2643 0c3d

net.3.weight f4 [64, 128]
-0.17317925 -0.053705055 -0.3207273 -0.4041956 -0.19995482 -0.13725728 -0.26544604 -0.2976228
-0.25683966 -0.0056889323 -0.080052085 0.02709091 -0.22416274 -0.022538198 -0.02849823 -0.3865476
0.08765605 0.082592085 0.10932316 -0.034477454 0.107979946 0.007874548 0.21017672 -0.23678483
0.050922893 0.012251267 -0.32900682 -0.113210656 0.090068616 0.10855934 -0.5933082 0.12002968
0.07090219 -0.20308526 -0.04841873 -0.37480918 0.2584832 -0.0818362 -0.4828359 0.008078984
-0.23947014 0.12569007 0.23046559 -0.2865205 -0.5612039 0.1130861 0.040245455 -0.6158031
0.010182738 -0.23504145 -0.041377652 0.13082728 0.10291983 -0.03188655 -0.2347432 0.10719633
-0.0034921076 -0.09183022 -0.027645474 -0.16750649 -0.19778125 0.045842487 -0.10210507 0.038965255
0.028464228 0.06744733 -0.045021344 -0.06773257 -0.30747867 0.10394523 -0.14516418 0.05496418
-0.25100434 -0.46502084 -0.047154985 -0.29472443 -0.37622494 -0.92948544 -1.1210763 -0.43850923
0.056220084 -0.0043375795 -0.03202731 0.20742168 -0.3028226 -0.2889549 0.019119436 0.11745343
0.07287257 0.07884531 -0.13382965 0.10152353 -0.28993034 -0.52303755 -0.011882098 0.07823676
-0.3960397 -0.3085437 0.049382403 0.11066774 0.16085939 -0.22772451 -0.07250693 -0.24675968
-0.035818443 -0.14427873 -0.04811358 -0.16537823 -0.13138577 0.08961222 0.07772942 0.011924157
-0.48903352 0.07473324 0.04298888 -0.24477167 -0.057083867 0.10893242 0.099216826 -0.29006258
-0.28920522 -0.2621779 0.06764338 -0.3043302 -0.014714058 0.029776307 -0.15227087 -0.18362646
0.020535344 -0.43358165 -0.58836913 0.04397128 -0.25360012 0.048730433 0.009280042 0.120570965
-0.14508516 -0.36866778 -0.31605828 -0.015113902 0.031389996 0.3113653 0.31873024 -0.17936791
-0.43056592 0.0042996015 0.09553744 0.04670559 0.08184339 -0.32574996 0.22540867 -0.36232877
0.012243327 0.006191558 0.13114816 0.06097148 -0.19808744 0.19571033 -0.0057443543 0.22448488
0.032926235 -0.042499147 -0.49924666 -0.10303782 0.07884758 -0.49680316 -0.23737192 -0.15729105
-0.1389901 -0.8791367 -0.56665826 -0.114164114 -0.0037252442 -0.17334077 -0.09155092 -0.2291147
0.03977828 0.07034659 -0.2734444 -0.22238718 -0.0755687 0.25013286 -0.4174448 0.13450597
0.078715466 -0.24175371 -0.1756038 0.20567846 0.2742454 -0.044232037 0.20534132 -0.121594444
-0.06947603 -0.30521122 -0.33295882 -0.046445835 -0.47345868 -0.43021497 -0.13163985 -0.24712855
0.11331254 -0.22812618 0.017096581 -0.0028870846 -0.3776171 -0.043526366 0.023999231 0.054568067
0.114371784 0.048009433 -0.032409854 -0.37390137 -0.095732056 -0.13028781 0.11478014 -0.59686035
0.12764193 -0.06275968 0.17234111 -0.25065544 -0.035026636 -0.36938828 0.0863977 -0.60518634
-0.00090084167 -0.04802781 -0.3971786 -0.17518857 -0.3419311 -0.1675523 0.13972434 -0.024563339
0.08341069 0.053362545 -0.13056198 0.026788231 -0.35061657 0.05410827 -0.46925 -0.039129484
-0.06568906 0.06060723 -0.256463 0.13599534 -0.010150919 0.23544699 0.03236225 0.23075445
-0.29669696 -0.12209489 -0.41175142 -0.053119656 -0.07696994 -0.23914874 0.04131352 -0.03211931
00000000: e755 31be d5f9 5bbd 5e36 a4be baf2 cebe
00000010: f5c0 4cbe 2c8d 0cbe 8be8 87be 0462 98be
00000020: 7d80 83be 396a babb 59f2 a3bd c2ed dd3c
00000030: eb8a 65be 07a2 b8bc 1f75 e9bc 91e9 c5be
00000040: 0485 b33d 0a26 a93d d2e4 df3d 3b38 0dbd
00000050: 9724 dd3d 4004 013c 9138 573e b977 72be
00000060: 8694 503d 8ab9 483c 9573 a8be fdda e7bd
00000070: e575 b83d 5c54 de3d 0ce3 17bf 1fd2 f53d
00000080: 2b35 913d 95f5 4fbe b852 46bd fde6 bfbe
00000090: e957 843e bd99 a7bd 4436 f7be b75d 043c
000000a0: a937 75be e6b4 003e 2cff 6b3e d1b2 92be
000000b0: 0fab 0fbf af99 e73d 6bd8 243d 46a5 1dbf
000000c0: 80d5 263c b5ae 70be 9d7b 29bd 96f7 053e
000000d0: a2c7 d23d 799b 02bd 8560 70be c089 db3d
000000e0: d8db 64bb 7b11 bcbd c378 e2bc d286 2bbe
000000f0: 2b87 4abe 55c5 3b3d 771c d1bd 089a 1f3d
00000100: d02d e93c d321 8a3d 4d68 38bd 60b7 8abd
00000110: d86d 9dbe 3de1 d43d eba5 14be 1f22 613d
00000120: a483 80be 3617 eebe 9625 41bd 1fe6 96be
00000130: 8ea0 c0be c2f2 6dbf 6e7f 8fbf 4884 e0be
00000140: 0847 663d 4122 8ebb 122f 03bd 5966 543e
00000150: 900b 9bbe e6f1 93be 5da0 9c3c 6d8b f03d
00000160: 373e 953d a679 a13d a40a 09be 92eb cf3d
00000170: c071 94be cae5 05bf 22ad 42bc 983a a03d
00000180: b7c5 cabe 71f9 9dbe 3445 4a3d c5a5 e23d
00000190: 53b8 243e 9d30 69be 837e 94bd 92ae 7cbe
000001a0: 5cb6 12bd cebd 13be bf12 45bd e958 29be
000001b0: fe89 06be 9d86 b73d 9a30 9f3d 8a5d 433c
000001c0: 9a62 fabe be0d 993d 1c15 303d 6da5 7abe
000001d0: c6d0 69bd f617 df3d 3132 cb3d 1583 94be
000001e0: b512 94be 2f3c 86be 9d88 8a3d 2bd1 9bbe
000001f0: 3b13 71bc 71ed f33c e5ec 1bbe 9308 3cbe
00000200: bd39 a83c 6afe ddbe 5c9f 16bf 3b1b 343d
00000210: e0d7 81be 9099 473d 510b 183c e9ed f63d
00000220: 3491 14be 06c2 bcbe 64d2 a1be 4da0 77bc
00000230: cc92 003d 466b 9f3e 9c30 a33e 39ac 37be
00000240: 2373 dcbe ace3 8c3b 22a9 c33d 5c4e 3f3d
00000250: 829d a73d b3c8 a6be 88d1 663e 2883 b9be
00000260: 3c98 483c 8ee2 ca3b b44b 063e 3bbd 793d
00000270: 6fd7 4abe 4a68 483e 233b bcbb 5ddf 653e
00000280: a9dd 063d 9613 2ebd 429d ffbe 7e05 d3bd
00000290: d77a a13d fc5c febe a011 73be e810 21be
000002a0: 6c53 0ebe 1a0f 61bf 8410 11bf e0ce e9bd
000002b0: 3a23 74bb 3e80 31be 0c7f bbbd 0b9d 6abe
000002c0: 8dee 223d df11 903d e800 8cbe 77b9 63be
000002d0: c3c3 9abd 6a11 803e 53bb d5be efbb 093e
000002e0: 9335 a13d 498e 77be 7cd1 33be 609d 523e
000002f0: e569 8c3e a72c 35bd ff44 523e 8206 f9bd
00000300: 7349 8ebd a544 9cbe 9479 aabe fd3d 3ebd
00000310: 2d69 f2be 2345 dcbe 99cc 06be 440f 7dbe
00000320: 6810 e83d e999 69be 210e 8c3c 3e35 3dbb
00000330: 0757 c1be b448 32bd 099a c43c c482 5f3d
00000340: c13b ea3d 8aa5 443d 32c0 04bd 0070 bfbe
00000350: 2b0f c4bd 2b6a 05be da11 eb3d d7cb 18bf
00000360: 91b4 023e 2688 80bd 307a 303e e955 80be
00000370: 1778 0fbd 7620 bdbe 47f1 b03d 7eed 1abf
00000380: 7626 6cba cfb8 44bd fe5a cbbe a264 33be
00000390: 9811 afbe d592 2bbe e613 0f3e 0e39 c9bc
000003a0: 39d3 aa3d af92 5a3d 0ab2 05be fe72 db3c
000003b0: 0484 b3be a2a0 5d3d 8941 f0be 3d46 20bd
000003c0: fc87 86bd 493f 783d 1e4f 83be 5d42 0b3e
000003d0: 0a50 26bc 0419 713e 478e 043d e54a 6c3e
000003e0: aae8 97be e30c fabd 15d1 d2be ff93 59bd
000003f0: 6aa2 9dbd 68e3 74be 5e38 293d 8a8f 03bd

net.3.bias f4 [64]
0.09942275 0.17666078 0.04056235 -0.075913906 0.13349612 -0.1111442 0.12949274 -0.08018643
0.1628746 0.155993 0.14564425 0.09585934 -0.094503984 0.016463311 0.0741605 0.21673171
0.19798206 0.12222762 0.01728937 0.13357852 0.1468987 0.13724175 0.15754773 0.041321643
-0.18073058 0.27394116 0.17464386 0.12332951 0.25060058 0.14010537 0.149903 0.07813708
-0.0013723233 0.18069544 0.12940526 0.21813232 0.14425653 0.15490225 0.04978659 0.1581006
0.031181589 0.13277735 -0.06710494 0.1226393 0.13397814 0.14136213 0.12406412 -0.06906478
0.10260565 0.07044696 0.11896555 0.18466851 0.08029992 0.113151565 0.099456616 0.21251264
0.101922624 0.07138814 0.13254511 0.10538051 0.11777458 -0.05452528 -0.005060124 0.07622565
00000000: 289e cb3d 90e6 343e b524 263d c078 9bbd
00000010: 35b3 083e 929f e3bd bf99 043e c838 a4bd
00000020: 99c8 263e a1bc 1f3e c423 153e e751 c43d
00000030: 4e8b c1bd 11de 863c 76e1 973d ebee 5d3e
00000040: cfbb 4a3e 7952 fa3d 70a2 8d3c cfc8 083e
00000050: 9d6c 163e 1a89 0c3e 3154 213e e240 293d
00000060: 7011 39be 0442 8c3e d7d5 323e 2f94 fc3d
00000070: b84e 803e c877 0f3e 2c80 193e 5506 a03d
00000080: 87df b3ba 3a08 393e d082 043e 145e 5f3e
00000090: fcb7 133e b29e 1e3e 06ed 4b3d 20e5 213e
000000a0: 8870 ff3c c9f6 073e 516e 89bd 502a fb3d
000000b0: 9131 093e 3cc1 103e 5415 fe3d d671 8dbd
000000c0: e922 d23d 7f46 903d 36a4 f33d be19 3d3e
000000d0: 4974 a43d 02bc e73d e9af cb3d ea9c 593e
000000e0: cfbc d03d f233 923d e8b9 073e bdd1 d73d
000000f0: cd33 f13d e655 5fbd 66cf a5bb 321c 9c3d

net.6.weight f4 [2, 64]
-0.49660355 0.7364789 0.1663096 0.09695122 -0.77328455 0.031977925 0.44307366 0.11394334
0.5610177 -0.43243417 0.16926517 -0.3111372 -0.06438427 0.15950914 1.0315636 -0.15163143
0.35089824 -0.38080385 0.35049427 0.7192501 0.55145645 0.7408732 0.3957263 -0.6668522
-0.3453137 0.5157403 0.80188346 -0.6014645 -0.34984413 0.19162019 -0.2654042 0.08281767
0.44673958 -0.2387451 0.4308128 0.37827924 0.23667556 0.4529659 -0.49109563 -0.42466468
0.38512957 0.554088 0.045620445 -0.56111956 0.61023456 -0.43889016 -0.2527329 -0.09007188
-0.5506691 0.57616544 -0.36218208 -0.20995814 0.25754446 -0.21642867 0.66123384 0.42274916
-0.2745937 0.13766707 -0.38373104 -0.4778335 -0.3522089 0.019086532 0.32925054 0.60240215
0.48248225 -0.8213746 -0.05070805 -0.09613594 0.63986504 -0.18188924 -0.42200464 -0.27882603
-0.45317572 0.34187737 -0.22864707 0.36327076 -0.045921065 -0.13597444 -1.021962 0.23584868
-0.43996915 0.37371865 -0.5502264 -0.5736078 -0.4783922 -0.6011963 -0.4530558 0.652137
0.5239674 -0.36198297 -0.656341 0.44799253 0.19012277 -0.40860856 0.124893464 -0.24149546
-0.37763605 0.06763602 -0.56701815 -0.57477105 -0.46494105 -0.21659921 0.5392325 0.44629246
-0.2822841 -0.72646993 -0.071047895 0.51153487 -0.426182 0.44183508 0.30688003 0.043890104
0.4832238 -0.5076402 0.26307124 0.2169018 -0.36260298 0.22950324 -0.5801084 -0.42709023
0.12051702 -0.12188468 0.32349798 0.5715603 0.25201315 0.020700417 -0.39804348 -0.5078516
00000000: d242 febe e289 3c3f 104d 2a3e 5c8e c63d
00000010: faf5 45bf 49fb 023d 8dda e23e 205b e93d
00000020: db9e 0f3f 0368 ddbe d953 2d3e 604d 9fbe
00000030: e6db 83bd 5d56 233e 470a 843f 4545 1bbe
00000040: efa8 b33e b9f8 c2be fc73 b33e c620 383f
00000050: 402c 0d3f dea9 3d3f a39c ca3e d3b6 2abf
00000060: f5cc b0be 8e07 043f 3c48 4d3f 94f9 19bf
00000070: c51e b3be 1538 443e 0fe3 87be 509c a93d
00000080: 0dbb e43e 9879 74be 7f93 dc3e d1ad c13e
00000090: 145b 723e 25eb e73e e370 fbbe a66d d9be
000000a0: b42f c53e b6d8 0d3f 81dc 3a3d 88a5 0fbf
000000b0: 5538 1c3f 36b6 e0be 3566 81be 9b77 b8bd
000000c0: a6f8 0cbf 947f 133f ee6f b9be 44ff 56be
000000d0: dedc 833e 7a9f 5dbe 9f46 293f 9472 d83e
000000e0: 8c97 8cbe 99f8 0c3e 6578 c4be 98a6 f4be
000000f0: ba54 b4be 5c5b 9c3c 8793 a83e 0737 1a3f
00000100: ea07 f73e 9b45 52bf 3fb3 4fbd ebe2 c4bd
00000110: 32ce 233f 2c41 3abe fe10 d8be 49c2 8ebe
00000120: a606 e8be 8d0a af3e 7522 6abe a0fe b93e
00000130: ba17 3cbd e23c 0bbe a7cf 82bf 5182 713e
00000140: a343 e1be 0d58 bf3e a3db 0cbf f6d7 12bf
00000150: d3ef f4be 00e8 19bf eef6 e7be 73f2 263f
00000160: ba22 063f d555 b9be f705 28bf 475f e53e
00000170: 8baf 423e 2435 d1be 25c8 ff3d 964a 77be
00000180: 8359 c1be c184 8a3d 1a28 11bf 3224 13bf
00000190: c10c eebe 2fcc 5dbe 240b 0a3f 7280 e43e
000001a0: 8b87 90be eff9 39bf 8f81 91bd f3f3 023f
000001b0: 8734 dabe 3538 e23e 611f 9d3e 1cc6 333d
000001c0: 1c69 f73e b5f4 01bf 46b1 863e 811b 5e3e
000001d0: 19a7 b9be e602 6b3e fc81 14bf 92ab dabe
000001e0: a1d1 f63d ad9e f9bd 87a1 a53e c751 123f
000001f0: de07 813e ec93 a93c 5bcc cbbe 9002 02bf

net.6.bias f4 [2]
-0.015151446 0.07558044
00000000: c53d 78bc ebc9 9a3d
