Python/server/utils/Data/AI/STAR_AI_v2/STAR_AI_v2.pth (torch, 42361 bytes, 6 tensors)

net.0.weight f4 [128, 10]
0	0x3ea6597c	0.32490146
1	0xbee4ee15	-0.44712892
2	0xbe00776d	-0.12545557
3	0x3f7b29f6	0.981109
4	0xbe21b1a1	-0.15790416
5	0x3f44364e	0.7664536
6	0x3d5d021f	0.0539571
7	0x3f8ae00a	1.0849621
8	0x3befa760	0.007313654
9	0xbcac08b1	-0.021000238
10	0x3e0eab2b	0.13932483
11	0x3e9c0964	0.30475914
12	0x3e899bdf	0.26876733
13	0x3ea06a1f	0.31330964
14	0x3e98bc0f	0.29830977
15	0x3e930c79	0.28720453
16	0xbe4497f8	-0.19198596
17	0xbf21acf7	-0.6315455
18	0xbe7a0ae6	-0.2441822
19	0x3eb589b1	0.35456613
20	0xbf912bb5	-1.1341463
21	0x3e18cfd5	0.14923032
22	0xbeb0f93a	-0.34565145
23	0x3f17d6ba	0.5931202
24	0x3dbb377a	0.09141441
25	0x3e682c46	0.22673139
26	0xbd725caf	-0.05917042
27	0x3ea2ab77	0.31771442
28	0xbedc5f1d	-0.43041316
29	0xbdc6c4f1	-0.09705532
30	0x3dc3fbd3	0.09569516
31	0xbf1c9767	-0.6116852
32	0x3ebc280b	0.367493
33	0x3dc4aa30	0.09602773
34	0xbd3642a5	-0.04449715
35	0xbe904b56	-0.28182477
36	0x3ec1ca19	0.378495
37	0x3d0a5d2d	0.033780266
38	0x3da20374	0.07910815
39	0xbd06f8be	-0.032952063
40	0xbd815fb8	-0.06317085
41	0xbdf31a72	-0.118702784
42	0x3e6e81f3	0.23291759
43	0x3dce5f2a	0.10076745
44	0x3ebc6a1e	0.3679971
45	0xbe7eb5d4	-0.2487405
46	0xbd2d0572	-0.04224152
47	0x3dadd721	0.08488298
48	0x3d103d81	0.035214905
49	0x3e1bca6e	0.1521394
50	0xbef4a00f	-0.47778365
51	0xbe268a26	-0.16263637
52	0x3d91d50d	0.07120714
53	0x3e561c85	0.20909317
54	0xbec1074b	-0.37700877
55	0x3da651ac	0.081210464
56	0x3ccf9a28	0.025342062
57	0xbe27e599	-0.16396178
58	0xbe0eb347	-0.13935576
59	0xbcac1cbb	-0.021009794
60	0x3efe3e39	0.49656847
61	0xbd1fd89a	-0.039024927
62	0x3f199b94	0.6000302
63	0x3ed818a2	0.42206293
64	0xbd30dea5	-0.04318108
65	0xbf333d87	-0.7001576
66	0xbd867f56	-0.06567256
67	0x3f1f3e09	0.62204033
68	0xbca0de90	-0.019637376
69	0x3d1f0295	0.03882082
70	0x3d23aa58	0.039957374
71	0x3d11f4e5	0.03563394
72	0x3ea22e9f	0.31676194
73	0x3f2d5963	0.6771452
74	0x3d84709a	0.064667895
75	0x3f0ac9e4	0.5421431
76	0x3d8ff28e	0.070286855
77	0xbfa6711e	-1.3003271
78	0x3d31539e	0.043292634
79	0x3d3bb2f6	0.045824967
80	0xbc480b1d	-0.012209681
81	0xbf2cac64	-0.6745055
82	0x3e8155fc	0.25260913
83	0x3e7b2223	0.24524741
84	0x3ec89682	0.39177328
85	0xbf649f8e	-0.8930596
86	0xbdbd38b5	-0.09239332
87	0x3ecd43f7	0.40090916
88	0xbc7b5b0d	-0.015341532
89	0xbd988855	-0.07447878
90	0xbfa0d53f	-1.2565078
91	0x3e869909	0.26288632
92	0x3e48a77a	0.19595137
93	0x3c4b0b95	0.012392898
94	0x3dc8c997	0.09804075
95	0xbcea71bc	-0.028618686
96	0xbe0f3d8c	-0.13988322
97	0xbf14cad7	-0.5812201
98	0x3d9fef53	0.07809319
99	0x3e4e143a	0.20124903
100	0x3e573d4e	0.2101948
101	0x3daa43db	0.08313724
102	0xbd5bf042	-0.053695925
103	0x3eaf97f9	0.34295633
104	0x3dec108f	0.11526596
105	0xbe8316a2	-0.25603205
106	0x3d833d5f	0.0640819
107	0xbe741408	-0.23835766
108	0x3e27a39f	0.1637101
109	0xbec0c120	-0.37647343
110	0xbdab0ef6	-0.08352463
111	0xbd379106	-0.04481604
112	0x3e0b0b61	0.1357856
113	0xbf97da53	-1.1863502
114	0xbcedbc73	-0.029020524
115	0x3ea9da1d	0.3317422
116	0x3d1549b0	0.036447227
117	0xbdd76abd	-0.105184056
118	0x3f0ed731	0.55797106
119	0xbf079b01	-0.5297089
120	0xbeada719	-0.33916548
121	0xbe109dff	-0.1412277
122	0x3f048d79	0.5177837
123	0x3ed1e5be	0.40995592
124	0xbe2eddc3	-0.17076783
125	0x3eb2b786	0.34905642
126	0x3e9acfa2	0.30236536
127	0x3f0ac75a	0.54210436
128	0xbdebc4c5	-0.1151214
129	0x3d1dadc7	0.038495805
130	0xbf449c1e	-0.76800716
131	0xbe40298c	-0.18765849
132	0x3f0a36db	0.5398995
133	0xbe58fa3a	-0.21189204
134	0x3d30e3ba	0.043185927
135	0xbe800168	-0.25001073
136	0xbd6b16d1	-0.057394806
137	0x3e67946c	0.22615212
138	0x3cf6c027	0.030120922
139	0x3e230b97	0.1592239
140	0x3e584d55	0.2112325
141	0xbf52350c	-0.82112193
142	0xbe0d825b	-0.13819258
143	0x3f343c02	0.70404065
144	0xbe37b43c	-0.17939848
145	0x3f4dc8f3	0.8038475
146	0x3e5bcc54	0.21464664
147	0x3f0dba6d	0.5536259
148	0x3d1c9c24	0.038234845
149	0xbd7a85f8	-0.06116292
150	0xbf402898	-0.7506194
151	0x3e96ab73	0.2942768
152	0xbf057d6a	-0.5214449
153	0x3e23c9b6	0.15994915
154	0x3e800603	0.25004587
155	0x3e5588da	0.20852986
156	0xbd7ed3c2	-0.062213667
157	0xbfab304c	-1.3374114
158	0x3c3e882c	0.011629146
159	0x3e116afe	0.1420097
160	0xbca49c89	-0.020094173
161	0x3c897f7b	0.01678442
162	0xbc7e0e01	-0.0155062685
163	0x3ee6581a	0.4498909
164	0x3c31b12f	0.0108454665
165	0x3e885d96	0.266339
166	0x3e02fbec	0.12791413
167	0xbf941f89	-1.1572124
168	0x3dc62f23	0.09676959
169	0x3d365cba	0.044522025
170	0xbe7286ca	-0.2368423
171	0xba46ab3f	-0.0007578618
172	0xbee196e4	-0.44060433
173	0x3e8d5fbc	0.27612102
174	0x3eb3c584	0.3511163
175	0xbd4252fc	-0.04744242
176	0xbd89305f	-0.06698679
177	0x3f097bcc	0.53704524
178	0xbe8f70bc	-0.28015697
179	0x3e3861e8	0.18006098
180	0xbe030750	-0.12795758
181	0x3bc949d6	0.006142835
182	0x3d2ceb09	0.042216334
183	0xc05e4b2c	-3.4733381
184	0xbb8b7bf6	-0.0042567207
185	0xbd7edffd	-0.06222533
186	0x3b91098a	0.004426186
187	0x3d8d27bf	0.068923466
188	0xbe1d9a4a	-0.15390888
189	0x3eadb81c	0.33929527
190	0xbe9675df	-0.29386804
191	0x3d70bf08	0.05877593
192	0x3eaeb3da	0.3412159
193	0xc04ba17e	-3.1817317
194	0xbc1ab3b3	-0.009442258
195	0xbf74d8d8	-0.9564338
196	0x3d6f47d0	0.058418095
197	0x3de8268f	0.113354795
198	0xbbe13ce7	-0.006873715
199	0xbc0901a4	-0.008362208
200	0xbe289460	-0.1646285
201	0x3e6ea665	0.23305662
202	0x3f08089f	0.53138155
203	0x3e74403b	0.23852627
204	0x3eb873c2	0.36025816
205	0x3eba2562	0.36356646
206	0xbe93fb29	-0.28902557
207	0x3e7dc530	0.24782252
208	0xbdde42e4	-0.10852602
209	0x3dfe3ae4	0.12413576
210	0x3da3bd89	0.07995135
211	0xbea02f22	-0.3128596
212	0x3e995aa7	0.29951975
213	0xbf4e7dc5	-0.8066066
214	0x3e53c5ef	0.20680974
215	0xbe8cff16	-0.27538365
216	0xbc27902c	-0.010227244
217	0xbeeef3a0	-0.46670246
218	0x3c403cee	0.011733277
219	0x3df8e22a	0.12152512
220	0x3f36b645	0.7137187
221	0x3e0cfdca	0.13768688
222	0x3e46d156	0.19415793
223	0x3e2dbe1d	0.16967054
224	0xbd9f0764	-0.077650815
225	0xbec1b195	-0.37830797
226	0xbeae2a3d	-0.340166
227	0x3e7eb06b	0.24871986
228	0x3d724f14	0.059157446
229	0xbda80f6a	-0.08206065
230	0xbe48b32d	-0.195996
231	0x3ed1fbeb	0.4101251
232	0x3f506738	0.814075
233	0x3eb4c21e	0.3530435
234	0x3e01b390	0.12666154
235	0x3e4051ff	0.18781279
236	0xbe877452	-0.26455933
237	0x3ee415a3	0.44547758
238	0xbe21c351	-0.15797164
239	0xbed29900	-0.41132355
240	0x3ecbbe05	0.3979341
241	0x3dc8b6d6	0.09800498
242	0xbe84bd5f	-0.2592573
243	0xbcf65e9e	-0.030074414
244	0xbe40b9fa	-0.18820944
245	0xbe9fe8d2	-0.31232315
246	0xbdcda0da	-0.100404456
247	0x3ee56d08	0.44809747
248	0xbe130e47	-0.14360915
249	0xbd80880b	-0.06275948
250	0x3ef29884	0.47381985
251	0x3d95da6b	0.073170505
252	0x3dbf0215	0.09326569
253	0xc030006d	-2.750026
254	0x3e424886	0.18972978
255	0xbefa67b7	-0.48907253

net.0.bias f4 [128]
0	0xbbaf2855	-0.005345384
1	0xbe408a64	-0.18802792
2	0xbedf190c	-0.43573797
3	0xbe4f6722	-0.20254186
4	0xbe9857be	-0.29754442
5	0xbe153b3a	-0.14573374
6	0x3dc2013e	0.09472893
7	0xbd6038c1	-0.054741625
8	0xbec812e2	-0.39076906
9	0xbe4c94b0	-0.19978595
10	0xbe112e3c	-0.14177793
11	0xbdfabb19	-0.12242717
12	0x3c83fa02	0.016110424
13	0xbd31d9d4	-0.043420628
14	0xbe4049b4	-0.18778116
15	0xbeab5679	-0.3346441
16	0xbe2aeda3	-0.16692214
17	0xbe93c812	-0.2886358
18	0xbe174f79	-0.1477641
19	0x3a56a083	0.000818737
20	0x3d7abbda	0.061214305
21	0xbdd9c0c7	-0.106324725
22	0xbecd7b74	-0.4013325
23	0xbeb32266	-0.3498718
24	0xbe241de2	-0.16027024
25	0xbd0729dd	-0.03299891
26	0xbebcd039	-0.3687761
27	0xbe3d3ee3	-0.1848102
28	0xbe2ed025	-0.17071588
29	0xbea6356b	-0.3246263
30	0xbee84510	-0.4536519
31	0x3b7e1660	0.003877066
32	0xbeaf9317	-0.34291908
33	0xbe34016a	-0.17578664
34	0xbdad770c	-0.08469972
35	0x3da8a1d6	0.08233993
36	0xbd749807	-0.059715297
37	0xbe466043	-0.19372658
38	0xbf009013	-0.5021984
39	0xbed1ea5d	-0.40999117
40	0xbc15518c	-0.009113681
41	0xbd4f1882	-0.05056048
42	0xbe33e6ce	-0.17568514
43	0xbe2a8e3f	-0.16655825
44	0xbe9b8cda	-0.303809
45	0xbdc8b550	-0.098002076
46	0xbe1fb9a8	-0.15598166
47	0xbdccd676	-0.10001843
48	0xbe19e35d	-0.15028138
49	0xbed29526	-0.41129416
50	0xbe219aca	-0.15781704
51	0xbe532c4c	-0.20622367
52	0x3dec4a5b	0.1153762
53	0xbe8905bc	-0.26762187
54	0xbe88ebbd	-0.26742354
55	0x3d8c3324	0.06845692
56	0xbc8fc139	-0.01754819
57	0xbee34694	-0.44389784
58	0xbc87a9f0	-0.016560525
59	0xbe2c3977	-0.16818796
60	0xbe4472a5	-0.19184358
61	0xbe1c1401	-0.15242006
62	0xbc755100	-0.014972925
63	0xbea64449	-0.32473972
64	0xbcb2667b	-0.021777382
65	0xbe3e3c24	-0.1857763
66	0x3c982929	0.018574314
67	0xbe88222a	-0.26588565
68	0xbee5864d	-0.44829026
69	0xbeeff489	-0.46866253
70	0xbe3326b7	-0.17495237
71	0xbe76658f	-0.24062179
72	0x3c9f1aa0	0.019421875
73	0xbefb501a	-0.4908455
74	0xbe83a644	-0.25712788
75	0xbe92576e	-0.2858233
76	0xbefd5f8a	-0.49486953
77	0xbdfb78e7	-0.1227892
78	0xbe24a7a8	-0.16079581
79	0xbd77978d	-0.060447264
80	0xbeb61e27	-0.3556988
81	0x3d210185	0.03930809
82	0xbe158fe3	-0.1460567
83	0xbde18da8	-0.11013347
84	0xbee54b5b	-0.44784054
85	0xbebef689	-0.37297466
86	0xbe501eb5	-0.20324214
87	0xbef9365a	-0.4867428
88	0xbe47d1bd	-0.19513603
89	0xbbf7b56c	-0.007559469
90	0x3d005046	0.031326555
91	0xbee584bf	-0.4482784
92	0xbc0c85cf	-0.008576824
93	0xbf0170ac	-0.5056255
94	0xbc4d1ec0	-0.012519538
95	0xbee1ee74	-0.44127238
96	0xbf00c612	-0.5030223
97	0xbe4a260e	-0.19741079
98	0xbdc4cb42	-0.09609081
99	0xbd81594d	-0.06315861
100	0xbd43c80a	-0.047798194
101	0xbf0fbce1	-0.5614758
102	0xbe3d4a8c	-0.18485469
103	0xbe295822	-0.16537526
104	0xbe519f09	-0.20470823
105	0xbe83f748	-0.25774598
106	0xbe2421c5	-0.16028507
107	0xbd977f20	-0.07397294
108	0xbe3e7f6d	-0.18603297
109	0x3d3f64e7	0.046727087
110	0xbd26ced9	-0.04072461
111	0xbe1dbc10	-0.15403771
112	0xbeaea378	-0.34109092
113	0xbf0790c4	-0.5295527
114	0x3c6ccbcc	0.014452886
115	0xbe9a5b7e	-0.30147928
116	0xbef4c74a	-0.47808295
117	0xbe3d815a	-0.18506375
118	0xbeb768bf	-0.35822102
119	0xbc2165cb	-0.0098509295
120	0xbe88a8e3	-0.2669135
121	0xbdbcf8d4	-0.09227148
122	0xbe84e302	-0.25954443
123	0xbe324974	-0.17410833
124	0xbe502587	-0.20326816
125	0xbeacaa4c	-0.33723676
126	0xbe8716a4	-0.2638446
127	0x3d8d10ed	0.06887994

net.3.weight f4 [64, 128]
0	0x3decb78b	0.115584455
1	0x3ca63217	0.020287557
2	0xbe867d50	-0.2626748
3	0xbec4e65b	-0.38456997
4	0xbeabf3bb	-0.3358439
5	0xbe6aa6f3	-0.22915249
6	0xbde38e0a	-0.11111076
7	0xbdcb696b	-0.09932216
8	0xbe3507d2	-0.17678764
9	0xbe490dd0	-0.19634175
10	0xbda730fb	-0.08163639
11	0x3c864021	0.016388
12	0x3d2f3b6e	0.042781286
13	0xbe15d362	-0.14631417
14	0xbe3e7895	-0.18600686
15	0xbef67958	-0.48139453
16	0xbeefa4ee	-0.4680552
17	0x3dad0b9c	0.0844948
18	0xbc774a4c	-0.015093397
19	0x3e11f624	0.14254051
20	0x3e166fc8	0.14691079
21	0x3dc97f33	0.098387145
22	0xbdac7344	-0.08420423
23	0xbc40c402	-0.011765482
24	0x3bd17952	0.0063926363
25	0xbc957737	-0.018245323
26	0xbdcb5486	-0.09928231
27	0x3e0880d5	0.13330396
28	0xbcaef0e5	-0.021355102
29	0x3d9fe252	0.07806839
30	0x3cb5eb8f	0.02220705
31	0x3d194ada	0.0374249
32	0xbe78e4a6	-0.24305972
33	0xbde24475	-0.110482134
34	0x3e048b3c	0.12943739
35	0xbdbccc88	-0.09218699
36	0x3f308fc6	0.6896938
37	0xbe81308c	-0.2523235
38	0xbb29999f	-0.0025878919
39	0xbc2f1d2c	-0.010688107
40	0x3e64099e	0.22269294
41	0xbe60225f	-0.21888112
42	0x3e5404fe	0.2070503
43	0x3e2a9562	0.16658548
44	0xbe48da61	-0.19614555
45	0x3d5e6e13	0.054304194
46	0xbf39121e	-0.7229327
47	0xbef913cc	-0.48647916
48	0xbdacc653	-0.08436265
49	0xbe4b3fe0	-0.19848585
50	0xbe1000c1	-0.14062788
51	0xbeef787c	-0.4677161
52	0x3e134d0a	0.14384857
53	0xbe4a9f51	-0.19787337
54	0xbeae982d	-0.34100476
55	0x3e13a8de	0.14419886
56	0x3d36ec63	0.04465903
57	0xbda75aa5	-0.08171586
58	0x3e20a754	0.1568883
59	0x3d5402fc	0.05176066
60	0x3d0442c1	0.032290224
61	0x3d7cf7ae	0.061759643
62	0x3d9d411b	0.076784335
63	0x3bf85a8d	0.007579154
64	0x3d8c91c9	0.06863744
65	0xbd4649f3	-0.048410367
66	0x3e7ca9b4	0.24674112
67	0xbba5d821	-0.005061165
68	0xbe483fd2	-0.19555596
69	0xbe344a3e	-0.17606446
70	0xbe3d1cb7	-0.18467985
71	0x3df68bd8	0.12038392
72	0xbf41c84d	-0.7569626
73	0x3e96305a	0.29333764
74	0xbf1d2cff	-0.61396784
75	0x3e43b81b	0.191132
76	0xbe5b4d7d	-0.21416278
77	0xbf003179	-0.5007549
78	0xbfa53cd6	-1.2909191
79	0xbe588639	-0.21144952
80	0x3d632057	0.055450764
81	0x3e256ab0	0.1615398
82	0x3e34b9d3	0.17649011
83	0x3e2ab409	0.1667024
84	0xbd988920	-0.074480295
85	0xbf59fd3f	-0.8515205
86	0xbc211030	-0.00983052
87	0x3e1e805e	0.15478656
88	0x3d34b8ea	0.04412166
89	0x3e491db0	0.19640231
90	0x3ddddc2e	0.108330116
91	0xbf142fe2	-0.57885563
92	0xbf8ce698	-1.1007872
93	0xbf0b3330	-0.5437498
94	0xbd6a0306	-0.05713179
95	0x3c9a40d3	0.018829739
96	0x3eb0c0a9	0.34521988
97	0xbd6e21be	-0.058137648
98	0x3d1da9c6	0.038491987
99	0xbd321d26	-0.04348483
100	0x3e44a775	0.19204505
101	0xbf43c7d5	-0.76476794
102	0x3d11f478	0.035633534
103	0xbf758d84	-0.9591906
104	0xbec147c5	-0.37750068
105	0xbd6c5c33	-0.057705116
106	0xbe5434e9	-0.20723309
107	0x3d9a0d91	0.07522119
108	0xbe479975	-0.19492133
109	0x3d91d157	0.071200065
110	0x3e5957ae	0.21224853
111	0xbdcfb86a	-0.10142596
112	0xbf002b06	-0.5006565
113	0x3e975213	0.29554805
114	0x3da66820	0.08125329
115	0xbe78e8d7	-0.24307571
116	0xbe8f7003	-0.28015146
117	0xbe06e567	-0.13173448
118	0xbee7fe10	-0.45311022
119	0x3d359af1	0.044337217
120	0xbc5328b3	-0.012888121
121	0xbcc52901	-0.024067404
122	0xbd8d1ced	-0.06890283
123	0x3dd0db40	0.101980686
124	0xbeb9d15a	-0.36292535
125	0x3c0e9700	0.008702993
126	0xbe755374	-0.23957616
127	0x3ca3560a	0.019938488
128	0xbc07b6f7	-0.008283368
129	0xbd800d22	-0.06252505
130	0xbd887090	-0.066620946
131	0x3ddbea1d	0.10738013
132	0xbea3ff29	-0.3203061
133	0xbe798ba4	-0.24369675
134	0xbc6612b9	-0.01404255
135	0xbdac5b0f	-0.084158055
136	0xbef2abc7	-0.4739668
137	0xbe2fc2f5	-0.17164214
138	0x3c96f772	0.018428538
139	0x3c39c323	0.011338028
140	0xbda7dcc1	-0.08196402
141	0x3c3ef5fa	0.011655325
142	0x3e13a162	0.14417031
143	0xbdf52f95	-0.11971966
144	0x3d95e6de	0.07319425
145	0xbdd96f2c	-0.106169075
146	0xbf49dab0	-0.78849316
147	0x3e39a680	0.18129921
148	0x3e2e5f4e	0.17028543
149	0xbd54e13c	-0.051972613
150	0x3e63af89	0.2223493
151	0xbb22d725	-0.0024847474
152	0xbdfcfdea	-0.12353118
153	0xbe4ddd2f	-0.20103906
154	0x3d9e297f	0.077227585
155	0x3ddbd7db	0.107345305
156	0xbe3a5b5d	-0.18198915
157	0xbebe0364	-0.37111962
158	0xbef2dab9	-0.47432497
159	0x3cd891f3	0.026436782
160	0xbebbe86c	-0.3670076
161	0x3d41eafc	0.04734324
162	0xbe70b5e5	-0.23506887
163	0x3bbb3b57	0.005713861
164	0xbcf77c5a	-0.030210663
165	0x3e5fa25f	0.21839283
166	0xbea2cef0	-0.31798506
167	0xbecde1e1	-0.40211394
168	0x3e1c4a7e	0.15262792
169	0x3d85e7e6	0.06538372
170	0xbd892623	-0.06696727
171	0x3dec612f	0.11541974
172	0x3eba34de	0.3636846
173	0xbe2cfa09	-0.16892256
174	0xbe81a6b0	-0.25322485
175	0xbead8ff2	-0.33898884
176	0xbede3331	-0.4339843
177	0xbd09089b	-0.033455472
178	0xbdbf91c0	-0.093539715
179	0xbf1bd9f4	-0.60879445
180	0xbe9f9198	-0.31165767
181	0xbd6be1bf	-0.057588335
182	0xbe72de8e	-0.2371771
183	0x3e0f8e6e	0.14019176
184	0xbf1d8d15	-0.615434
185	0xbf40e3ee	-0.75347793
186	0x3e33f8f4	0.17575437
187	0xbe9ef05e	-0.3104276
188	0x3dafb9d5	0.085803665
189	0xbe38314f	-0.1798756
190	0xbdcc3706	-0.099714324
191	0xbeb6b4b3	-0.35684738
192	0xbe484db4	-0.19560891
193	0xbe552264	-0.208139
194	0x3e30b6c7	0.17257224
195	0xbeef4159	-0.46729544
196	0xbe50bb61	-0.2038398
197	0xbf03d100	-0.51490784
198	0x3d87d386	0.06632142
199	0xbf1fe806	-0.62463415
200	0x3c6978ef	0.014250024
201	0xbd0cc510	-0.03436762
202	0x3d6508c8	0.055916578
203	0xbdd78f17	-0.10525339
204	0xbecfa701	-0.405571
205	0x3d039775	0.032126863
206	0x3e739c2e	0.23790047
207	0x3da2708d	0.079316236
208	0x3c71cc74	0.014758218
209	0x3e18e6e7	0.14931832
210	0xbde54257	-0.11194294
211	0x3e2fbf8a	0.1716291
212	0x3dd157d6	0.102218315
213	0x3cea5014	0.028602637
214	0xbf010970	-0.50405025
215	0xbe1175d3	-0.14205103
216	0xbf5f2201	-0.8716126
217	0x3c1fdfd1	0.009757952
218	0x3d6e628c	0.05819945
219	0xbd201bed	-0.039089132
220	0x3d9ea9e2	0.07747246
221	0x3e0f92a1	0.14020778
222	0x3cfa9925	0.030590603
223	0xbec43432	-0.38321072
224	0xbbda1ff8	-0.006656643
225	0xbc25dc06	-0.010123258
226	0xbacaf34d	-0.0015483886
227	0x3ec06f7b	0.37585053
228	0x3d44873c	0.047980532
229	0x3bc83ce2	0.0061107734
230	0x3efea755	0.4973704
231	0x3df81aa5	0.12114457
232	0xbeb399f4	-0.35078394
233	0xbd590404	-0.052982345
234	0x3e4b583f	0.19857882
235	0xbde48af2	-0.11159314
236	0xbf018772	-0.505973
237	0xbedee03a	-0.43530446
238	0xbf09b938	-0.53798246
239	0xbe900db1	-0.28135446
240	0xbde7bf1e	-0.113157496
241	0xbe32266d	-0.17397471
242	0xbdac72c8	-0.0842033
243	0x3d311960	0.04323709
244	0x3e3484ca	0.1762878
245	0x3e402822	0.1876531
246	0x3d800341	0.06250621
247	0x3df6899b	0.12037965
248	0xbdc1dd99	-0.094660945
249	0xbd84a65d	-0.06477044
250	0xbf02c2b8	-0.5107837
251	0xbe5c1886	-0.2149373
252	0x3dc437b9	0.09580941
253	0xbf8ed6d5	-1.1159312
254	0x3de36a51	0.111042626
255	0xbc7cb09d	-0.015422967

net.3.bias f4 [64]
0	0x3d29e9a3	0.04148258
1	0x3de39514	0.11112419
2	0x3d94b89f	0.07261776
3	0x3e06b0bf	0.13153361
4	0xbec5aadb	-0.38606915
5	0x3d06af22	0.032881863
6	0xbd1409e6	-0.036142252
7	0x3c14a889	0.009073385
8	0x3e4ae04e	0.19812128
9	0x3dc4f1fb	0.096164666
10	0x3e5d8313	0.21632032
11	0x3d2d8a4e	0.042368226
12	0xbe02efca	-0.12786785
13	0xbc6e89d1	-0.014559225
14	0x3deb8cf2	0.115014926
15	0x3de42960	0.11140704
16	0x3e2c8e5c	0.16851181
17	0x3dd812b0	0.10550439
18	0x3dd584ac	0.10425696
19	0x3df4ddbd	0.11956356
20	0x3e10a909	0.14126982
21	0x3dad4b6e	0.08461653
22	0x3e478462	0.19484094
23	0x3d1c0321	0.03808892
24	0xbf1ec54f	-0.6201982
25	0x3e56d914	0.20981246
26	0x3e16d7a4	0.14730698
27	0x3d8d4312	0.06897558
28	0x3dc9e44b	0.098579966
29	0x3da73c21	0.081657656
30	0x3b495590	0.0030721165
31	0x3d82171f	0.06352066
32	0x3e014516	0.1262401
33	0x3dc3c9cc	0.09559974
34	0x3e02148a	0.12703148
35	0x3dea4caa	0.11440404
36	0x3d8e37b6	0.0694422
37	0x3d97772f	0.07395779
38	0x3dc16c66	0.094445035
39	0x3da6fde7	0.08153897
40	0x3dc98a70	0.09840858
41	0xbd262074	-0.040558293
42	0x3dbc0d25	0.091821946
43	0xbd0fc10f	-0.035096224
44	0x3dad4e65	0.08462218
45	0x3db4796a	0.088122204
46	0x3da920be	0.08258198
47	0x3e0426f1	0.1290548
48	0x3d4e2750	0.05033046
49	0x3dd039c8	0.10167271
50	0x3db2295a	0.086992934
51	0x3daf4462	0.08557965
52	0x3deb3b1c	0.114858836
53	0x3df764a6	0.12079744
54	0x3e08cff2	0.13360575
55	0x3dfe83bc	0.1242747
56	0x3c322a86	0.010874396
57	0xbd3999fc	-0.045312867
58	0x3dabe194	0.08392635
59	0x3d26674c	0.040625855
60	0x3ddee25a	0.10883017
61	0x3d7bb76d	0.061454225
62	0xbd7d27ba	-0.061805464
63	0x3d45c08b	0.048279326

net.6.weight f4 [2, 64]
0	0xbf1eba18	-0.62002707
1	0x3f03cb78	0.51482344
2	0x3e3aa924	0.18228585
3	0x3dc9ef3d	0.09860084
4	0xbf0891c5	-0.53347427
5	0x3d2d8483	0.0423627
6	0x3df19052	0.11795105
7	0x3c608c07	0.01370526
8	0x3ed83272	0.42225987
9	0xbf03a7a1	-0.51427656
10	0x3f8c43ea	1.0958226
11	0xbf0d70f0	-0.55250454
12	0xbd975631	-0.073894866
13	0x3d98e719	0.074659534
14	0x3f3c3880	0.7352371
15	0xbecd1797	-0.4005706
16	0x3f775b7e	0.9662398
17	0xbf362c52	-0.7116138
18	0x3dafc325	0.08582143
19	0x3f4faa65	0.81119376
20	0x3e8e9849	0.2785056
21	0x3e5d77b1	0.2162769
22	0x3f490be8	0.7853379
23	0xbf778e63	-0.9670164
24	0xbe878f13	-0.26476344
25	0x3f1f7d40	0.6230049
26	0x3ee500de	0.44727224
27	0xbf143710	-0.5789652
28	0xbee5af69	-0.4486039
29	0x3ed7fba3	0.4218417
30	0xbed1b789	-0.4096034
31	0x3e99ee3c	0.3006457
32	0x3f2922f5	0.66068965
33	0xbeb81836	-0.3595597
34	0x3e8c7f61	0.27440932
35	0x3dbd6f32	0.092497244
36	0x3d7c3901	0.0615778
37	0x3e92a4b9	0.28641298
38	0xbefc5999	-0.49287108
39	0xbf196ba3	-0.59929866
40	0x3e3c4cce	0.18388674
41	0x3e84522c	0.25843942
42	0x3f8f8a96	1.1214168
43	0xbf098097	-0.5371184
44	0x3f0c230a	0.54740965
45	0xbec6b88a	-0.38812667
46	0xbf877f13	-1.0585655
47	0xbed1b5d8	-0.40959048
48	0xbe92b396	-0.28652638
49	0x3f1a0491	0.6016322
50	0xbf3776a8	-0.7166543
51	0xbf1527cd	-0.58263856
52	0x3e389d37	0.18028723
53	0xbe9154ee	-0.2838511
54	0x3f162c3a	0.58661234
55	0x3f3cce02	0.7375184
56	0xbef9be20	-0.48777866
57	0x3e213515	0.15742905
58	0xbe8f6e2e	-0.28013748
59	0xbf185c3a	-0.59515727
60	0xbf089319	-0.53349453
61	0xbf207ed9	-0.62693554
62	0x3c454c52	0.012042122
63	0x3ebacea3	0.36485776
64	0x3f1b1c9c	0.6059053
65	0xbf198746	-0.59972036
66	0xbd8891b0	-0.06668413
67	0xbdc843f5	-0.09778587
68	0x3eccd390	0.4000516
69	0xbe44e395	-0.1922744
70	0xbdc66a46	-0.09688239
71	0xbe36df75	-0.1785868
72	0xbea0fbce	-0.31442112
73	0x3ed8f21f	0.42372224
74	0xbf93ddb5	-1.1552035
75	0x3f1ac9cf	0.60464185
76	0xbd152333	-0.03641052
77	0xbd516ac9	-0.05112723
78	0xbf39c347	-0.72563595
79	0x3ef8362b	0.48478827
80	0xbf87147e	-1.0553129
81	0x3f345bfe	0.7045287
82	0xbe923451	-0.2855554
83	0xbf2a618b	-0.6655509
84	0xbe525f76	-0.20544228
85	0xbd9ce141	-0.07660151
86	0xbf57b8fb	-0.8426663
87	0x3f73c9f0	0.9523001
88	0x3ee307bf	0.44341847
89	0xbef04127	-0.46924707
90	0xbe9a7c13	-0.30172786
91	0x3ed9d9c9	0.4254897
92	0x3e93e849	0.28888157
93	0xbf238a61	-0.63883024
94	0x3e89c67a	0.26909238
95	0xbeeb2c89	-0.45932415
96	0xbf177230	-0.5915861
97	0x3e40f928	0.18845046
98	0xbed23cee	-0.4106211
99	0xbe93f68b	-0.28899035
100	0xbe94667e	-0.28984445
101	0xbd4cfcbf	-0.050045725
102	0x3f0a7f87	0.5410084
103	0x3f1ef4f8	0.6209254
104	0xbda5fa01	-0.08104325
105	0xbedc9529	-0.4308255
106	0xbf92cbdf	-1.1468467
107	0x3ef99dc3	0.48753175
108	0xbeba0a3c	-0.36335933
109	0x3ec83a74	0.39107096
110	0x3f8e6d36	1.1127079
111	0x3eba106b	0.3634065
112	0x3e6055da	0.2190775
113	0xbf0879ca	-0.53310835
114	0x3f1e1747	0.6175427
115	0x3f16eed2	0.5895816
116	0xbe92197d	-0.2853507
117	0x3e980694	0.2969252
118	0xbf01678f	-0.5054864
119	0xbf3dea7b	-0.74185914
120	0x3eaadb30	0.33370352
121	0xbe110bc0	-0.14164639
122	0x3e612e81	0.21990396
123	0x3f305a99	0.6888824
124	0x3eddd99c	0.43330085
125	0x3f2aae3d	0.66672117
126	0xbda58d03	-0.080835365
127	0xbe8a6615	-0.27031007

net.6.bias f4 [2]
0	0xbccf909c	-0.02533751
1	0x3dafa55e	0.08576463
