Python/server/utils/Data/AI/STAR_AI_v2/STAR_AI_v2.pth (torch, 55161 bytes, 6 tensors)

net.0.weight f4 [128, 35]
000000 24 35 83 3d 14 6a 20 bd 06 05 68 3d 37 10 42 3d
       0.0640662 -0.039163664 0.056645416 0.047378745
000010 4f a1 ee bb 41 b1 2b 3e bb dd 1f 3e 89 3b 34 3e
       -0.007282413 0.16766836 0.15611927 0.17600836
000020 33 f3 b3 bd cb ee 33 bd 51 39 80 3d 44 f9 a5 3e
       -0.08786621 -0.043928903 0.06260932 0.32416737
000030 75 97 ce 3d b6 65 4b bc 5d f7 72 3e b7 10 f2 bd
       0.10087482 -0.0124143865 0.23727174 -0.11819594
000040 ef 68 4d be 5c 64 8d bd 4c a8 0c be a0 a0 9b 3d
       -0.2005956 -0.06903908 -0.13736075 0.07598996
000050 eb c6 58 bd 30 ee 10 3c c9 e1 46 3d 0d a8 a4 3b
       -0.052924078 0.008845851 0.04855517 0.005024916
000060 dd c9 4d 3d 8b f0 88 bc 1f 75 76 3d b4 af 58 3c
       0.05024134 -0.016716262 0.06017029 0.013225485
000070 2c 07 d2 bd ff 6a 75 bc 76 ab af 3d a9 b7 6a bd
       -0.10255274 -0.014979123 0.085776255 -0.05730406
000080 3e e9 15 3e dd 66 cd 3d a0 3b d9 3d 72 ea 13 3c
       0.14639756 0.10029385 0.10607076 0.009028064
000090 13 97 d2 3d 4b f1 a2 3c 1a b5 e9 3c b3 a5 dc 3c
       0.10282721 0.019890448 0.028528739 0.02693448
0000a0 81 fd b1 bd bf 64 78 bd a7 e3 19 bd b2 56 93 3c
       -0.0869093 -0.060642954 -0.03757062 0.017985675
0000b0 98 f9 6a 3d 07 b2 3a 3d bb b8 8d 3e b1 3a 60 3e
       0.057366937 0.045579936 0.2768 0.21897389
0000c0 99 82 ef 3c 97 c8 31 3e e7 71 1c be 90 19 12 bd
       0.029237079 0.17361675 -0.15277825 -0.03566891
0000d0 de dc d5 bd 89 1b 0d 3e c5 92 a9 bd f8 03 1f 3e
       -0.10442518 0.13780035 -0.08279947 0.15528858
0000e0 30 b9 51 be 7c 3d 77 3d ac 18 47 be 53 d4 93 3c
       -0.204808 0.06036137 -0.19443005 0.01804558
0000f0 aa 8e 95 3e f7 ff 91 bc fd 31 ca 3d 57 39 f6 bd
       0.29210407 -0.017822249 0.09872816 -0.120226555
000100 c5 3a 9c bc d0 56 36 3d 1d 26 10 be 9e 96 e8 3d
       -0.019070992 0.044516385 -0.14077039 0.11356853
000110 0e 71 f2 3c f9 e3 27 3e 47 80 6c 3d f3 38 2f 3e
       0.029594924 0.16395558 0.057739522 0.17111568
000120 c0 c1 95 3d 6a 9e 18 3e 2e b8 6a bd 18 7e 64 3e
       0.073123455 0.1490418 -0.057304554 0.22313726
000130 95 c0 03 3e b0 a3 4b bd 1f c0 44 3d f2 43 5c bc
       0.12866433 -0.04971665 0.048034783 -0.013443934
000140 ef 16 1a bd 7f d0 4a be 00 1c 67 3d 09 eb 51 bd
       -0.037619527 -0.19806097 0.056423187 -0.051249538
000150 b6 88 a7 3d 78 1b 3b be 37 3b 95 bd 0a 90 44 3e
       0.081803724 -0.18272197 -0.07286685 0.19195572
000160 00 a3 a1 bc 02 10 56 bb 50 51 5d be 1c 70 fe 3d
       -0.019731045 -0.003266335 -0.2161305 0.12423727
000170 a6 ab 34 3d 01 75 9e 3c f6 c8 82 bc bd 83 72 be
       0.04410901 0.019342901 -0.015964966 -0.23683067
000180 57 7a 9c be 78 3b 6c be 9c ae 87 3e 78 0d fa 3c
       -0.30562088 -0.2306956 0.26500404 0.030524
000190 de ba 62 bd 9b 4f 90 3c 6e 82 0b be 91 d1 0e 3e
       -0.05535399 0.017616084 -0.13623974 0.1394713
0001a0 51 3f ff 3c 97 c0 17 be d2 02 ba 3d 31 98 a4 bc
       0.031158121 -0.14819561 0.09082569 -0.020092102
0001b0 84 e4 64 3c 49 8a e1 bd f2 e7 e1 bc 66 6c 88 3d
       0.013970498 -0.11012704 -0.02757642 0.066613
0001c0 3b 43 a8 3c aa 32 07 be 7c 4a 4f 3d a3 5e d2 3d
       0.02053987 -0.1320292 0.050608143 0.10271957
0001d0 35 8a 65 be 43 5b 05 bf 0c d5 0b 3e b3 28 96 be
       -0.22416003 -0.5209238 0.1365549 -0.29327926
0001e0 36 76 9f 3c 13 e0 53 bd 7d 41 ef 3d f4 50 12 3d
       0.019465547 -0.051727366 0.11682413 0.035721734
0001f0 e0 d5 01 be 75 dd c1 3d d5 4d b7 3c 7a 70 93 3a
       -0.12679243 0.09466068 0.02237598 0.0011248731
000200 f8 d1 3f bd bc ef 08 3e 17 55 7b be 4c 50 66 be
       -0.0468311 0.13372701 -0.24544178 -0.22491568
000210 09 e5 85 3d 90 ec 9f 3d 34 05 ba 3d 26 2d 3c 3c
       0.065378256 0.078087926 0.09083024 0.011485374
000220 97 db 67 bd 8a b6 b9 ba 97 dc f7 3b 76 48 a0 3c
       -0.0566059 -0.0014168781 0.007564138 0.019565802
000230 f8 26 03 3e d1 6f 1a be 2c 13 c6 bd ab c4 20 3e
       0.12807834 -0.15081717 -0.096716255 0.15700023
000240 70 e8 1d be 51 b5 d3 3d 8c f3 f5 3d 48 ad 46 bc
       -0.15420699 0.10337318 0.120093435 -0.012126274
000250 d4 a7 13 be 0f 9c ce bd 56 aa db bd 16 30 9a 3e
       -0.1441949 -0.100883596 -0.107258484 0.30114812
000260 81 0b bd ba 7a b4 09 3e 14 ea 36 3e ea d7 99 3d
       -0.0014422984 0.13447753 0.17862731 0.075118855
000270 e1 0f 52 bd 6d 18 3d be 09 58 0a 3e 0e d9 0d 3e
       -0.051284675 -0.18466349 0.13510145 0.13852331
000280 83 00 a6 3d a2 06 b7 3d 72 cc b2 bd 8e 11 dc 3c
       0.08105566 0.08936812 -0.08730401 0.02686384
000290 ec e7 74 3d fd 60 3e 3d ac 93 28 3d 29 db 65 be
       0.05979149 0.046479214 0.041156456 -0.22446884
0002a0 cc 94 56 3e 3f 3b 89 3d 58 7f e7 bd 94 9a 85 bd
       0.20955199 0.067007534 -0.11303586 -0.06523624
0002b0 f3 90 f0 ba 6c 89 19 3d b5 cf d1 bb cb 52 ef bd
       -0.0018353745 0.03748457 -0.0064029344 -0.116857134
0002c0 02 9b 86 be 70 c5 24 3e 42 44 68 bd 2e 6f 27 3e
       -0.26290137 0.16090941 -0.05670572 0.16351005
0002d0 e2 e7 7f 3c 2a 9c 53 3d b3 15 0c be 85 42 c0 bc
       0.01561925 0.0516626 -0.13680153 -0.023469219
0002e0 dd 2d 90 bd 85 fc 96 bc da ec 15 3e 2d db 43 3e
       -0.07039998 -0.018430958 0.14641133 0.19126578
0002f0 38 38 a3 bd 55 97 54 3e 09 0d e2 3d 54 6d 24 bd
       -0.07969707 0.20760854 0.110376425 -0.040143326
000300 08 b6 e2 3d 23 86 50 bd ee e9 67 be 6d 01 28 bd
       0.11069876 -0.050909173 -0.22647831 -0.041016985
000310 2b bb b6 3d ed 2f 95 3d 1c 60 31 bc 28 a9 4e 3c
       0.08922418 0.07284532 -0.010826137 0.012613572
000320 e5 9a 0b 3d a8 50 f7 3d 5c ac f1 3d 11 62 92 3d
       0.034083266 0.12075931 0.11800453 0.07147611
000330 de 5c c3 3d aa 25 80 3b bb a5 6a be 50 41 90 3d
       0.095391974 0.00391074 -0.22914784 0.07043707
000340 a0 c4 10 bd 69 b7 ca 3b 68 4e 23 be 62 79 52 be
       -0.035343766 0.006186415 -0.15947878 -0.20554116
000350 f4 1e 33 bb 97 9f da 3c 6d 36 47 3e 6f a7 69 3d
       -0.0027331682 0.026687426 0.19454356 0.057044443
000360 9f 08 0f 3d 9f 78 27 bc 2c 04 14 be 3c c0 10 be
       0.03492033 -0.010221629 -0.14454716 -0.14135832
000370 9c 61 e0 bc 5a 1c 9c 3e 24 42 8c 3e 44 19 a4 bc
       -0.027390294 0.3049038 0.2739421 -0.020031579
000380 a1 cc 07 3e e1 df e7 bc 5b 1e 06 be 87 f8 51 3d
       0.13261653 -0.028304996 -0.13097517 0.051262405
000390 92 e5 e3 3d 34 84 f0 3d fc be 26 be 4a 4f 75 3d
       0.111277714 0.11743966 -0.16283792 0.05989007
0003a0 72 9c c7 3d 25 d1 33 bd ef 71 aa 3d 24 0b e2 3d
       0.097466365 -0.043900628 0.08322512 0.11037281
0003b0 18 02 d2 bc 85 39 80 3c 7f e8 1e be 9f 33 8c 3c
       -0.025635764 0.015652427 -0.15518378 0.017114459
0003c0 4b c6 a1 3d 76 11 37 bd 18 19 98 bd e5 5c 3c 3c
       0.078991495 -0.044694386 -0.07426661 0.011496757
0003d0 36 e3 a2 bd d3 19 56 be c9 1c a4 bd 2a 21 0b 3e
       -0.07953493 -0.20908289 -0.08013303 0.1358687
0003e0 e2 ed 9a bd 84 a0 ad bd ba c1 86 bd f7 dc b8 bc
       -0.07564904 -0.084778816 -0.06579919 -0.022566302
0003f0 f3 01 b8 3d 3a 2f c2 bd a9 54 da 3d 2c 00 a2 bd
       0.08984747 -0.09481664 0.10660679 -0.07910189

net.0.bias f4 [128]
000000 18 a0 f2 3d 27 47 32 3e 4c 97 4e be 92 4b ad 3b
       0.11846942 0.17409955 -0.20174903 0.0052885497
000010 8f f6 b8 bd 44 d3 7b 3d 52 34 bd 3d 61 b6 99 3d
       -0.09031402 0.061480775 0.09238495 0.07505489
000020 58 1c 4d bd 93 11 48 3d f0 bb 04 bd 61 3d 31 be
       -0.05007586 0.048844885 -0.032405794 -0.1730857
000030 57 c1 1c bd a8 60 2f 3e 95 50 31 be f9 4d 31 bd
       -0.03827032 0.17126715 -0.17315896 -0.04328725
000040 44 e6 4d bd f1 e8 1f be 2f 69 87 3b 5d 05 51 be
       -0.050268427 -0.15616204 0.004132412 -0.20412202
000050 ae 28 13 3d 79 78 dd bd 97 b1 f2 3d 93 ae 6e 3c
       0.035927467 -0.10813994 0.11850279 0.014567989
000060 8e 46 0e be 20 a3 2d be 90 3a c0 bd 0b 69 5c bd
       -0.13894102 -0.16956758 -0.0938617 -0.053811114
000070 5a 75 36 3e da 39 5a 3e 6e af 81 3d bd 4d 3c 3d
       0.17818204 0.21311131 0.06332289 0.045972575
000080 5a 1c 19 be 7d c8 52 be 4a c3 09 3e c3 af a4 3d
       -0.14952222 -0.20584293 0.13453403 0.080413364
000090 da 34 b1 b9 e3 fa 3d bd 82 81 19 be e3 32 ef bd
       -0.00033799448 -0.046381842 -0.1499081 -0.11679628
0000a0 85 c4 de 3d 26 40 9f bd 67 a8 ef bd 64 39 dc 3d
       0.10877327 -0.07775907 -0.11702042 0.10753134
0000b0 05 80 04 be 2b d3 68 3d 24 2e 37 3d ec 31 71 3d
       -0.1293946 0.05684201 0.044721738 0.0588855
0000c0 56 34 4a 3d c6 5e e2 3d 76 69 25 3d dc 97 3b bd
       0.049366318 0.11053233 0.04038378 -0.04579912
0000d0 36 7d 35 3e 07 da 55 3c ce f9 02 be 9b e5 be bd
       0.17723545 0.01305247 -0.12790605 -0.093211375
0000e0 be c2 e8 bd c8 c1 fb 3d 0c cb 6b bd 39 89 db 3d
       -0.11365269 0.1229282 -0.057566687 0.107195325
0000f0 61 79 ea bd 71 f7 c8 bd 0a 88 1c 3e 82 f2 31 3d
       -0.114489324 -0.09812821 0.1528627 0.043444164
000100 f4 bb 36 be 8b 11 b7 bc 7b f0 ff bb f5 a7 7b 3c
       -0.17845136 -0.022347232 -0.00781065 0.015359868
000110 5c ed 6a be 8c 87 08 bd 32 e7 06 3d 4a 16 3d 3e
       -0.22942108 -0.033332393 0.03293533 0.18465534
000120 55 d3 64 3d 4f 25 9b 3a 79 91 d9 bd 56 66 8c bc
       0.055865604 0.001183668 -0.1062345 -0.017138641
000130 22 da e2 bd 1f ea d1 bc ed d9 88 3d 5a ce 54 3e
       -0.11076762 -0.025624333 0.06682191 0.20781842
000140 60 15 c1 bc 9f 88 1a 3d 4c f5 3b bb c5 53 f5 bd
       -0.023569763 0.03772795 -0.0028680144 -0.119788684
000150 8f ea b4 bd a5 c1 cb 3c 1b 36 3e be dd 32 0e 3d
       -0.08833801 0.02487261 -0.18575327 0.034716476
000160 85 fc a2 bd a3 ce 23 3c cc df 4b 3c 8a a5 20 3e
       -0.079583205 0.0099979965 0.012443494 0.15688148
000170 13 d5 00 bd d2 c3 24 3e 03 d7 31 be 67 8f 47 be
       -0.031453203 0.16090325 -0.17367177 -0.19488297
000180 26 53 77 3c d5 80 3a bd 1a dc 55 bc de f1 69 bc
       0.015095508 -0.04553302 -0.013052965 -0.014278857
000190 45 ce 3c be ca b2 b6 3d eb 1e 2c 3d be 6e db bd
       -0.1843806 0.0892082 0.042021673 -0.10714482
0001a0 8c 6a 8f 3d 02 03 4a bd 8c 72 18 be 33 f0 4b 3c
       0.07002744 -0.049319275 -0.14887446 0.012447405
0001b0 03 48 15 bd d9 97 fb 3d 79 aa 3d 3d 7c 5c 3d bd
       -0.03644563 0.12284822 0.046305154 -0.046230778
0001c0 2c 9b 51 3d c4 e0 ba 3d eb 8a b6 3b 0f d7 3b bd
       0.051173374 0.09124902 0.0055707595 -0.045859393
0001d0 ea fa eb bd db 66 11 be 73 dc 9c bd bf 61 37 bd
       -0.115224674 -0.14199392 -0.07659235 -0.044770952
0001e0 03 4f fa bd 28 39 da 3d 49 4c 3a 3d d6 05 11 3d
       -0.122221015 0.10655433 0.045482907 0.035405956
0001f0 f7 09 38 bd 7b ef b8 bd 31 cb e2 bd a8 5a 8f bb
       -0.04493138 -0.09030052 -0.11073912 -0.0043748207

net.3.weight f4 [64, 128]
000000 e0 d4 4e 3d b0 45 0f 3d 01 01 23 bc 9f 5b 74 bd
       0.050495982 0.03497857 -0.00994897 -0.05965769
000010 9e b4 93 bd 7e a1 3d bd ea 9a 44 bd 32 52 bb 3b
       -0.07212184 -0.04629659 -0.0479993 0.0057165856
000020 1b b7 28 bc 73 45 31 3c 33 1d 3f 3d b7 70 ed 3c
       -0.010297562 0.010819781 0.046658706 0.02898441
000030 2c c9 d9 3b f9 f9 fe bc 9a 28 7d 3d c3 a2 f5 3c
       0.006646296 -0.031125056 0.0618063 0.029984837
000040 be 85 12 3d 91 54 8e bd 31 e4 21 bd ac 78 78 3c
       0.035772078 -0.069497235 -0.03952426 0.015165489
000050 0f 15 5f bd 12 1e 70 bd 6e 33 82 3d b9 a8 d5 bd
       -0.054463442 -0.058622427 0.06357466 -0.10432572
000060 46 fd 1e bc 3e f0 e2 bc b6 bb a8 bd 93 c8 68 bd
       -0.00970394 -0.027702447 -0.08238928 -0.056831907
000070 ad c9 2f 3d 8c 22 df bc 64 2e c9 bd 16 22 34 bd
       0.042916942 -0.027238153 -0.098233014 -0.04397782
000080 a7 88 0e bd 2b 15 83 3c f1 07 db 3c 62 77 e7 bc
       -0.03479829 0.016001305 0.026737185 -0.028255168
000090 fe 9d 84 bd a3 f7 87 bd 77 56 83 bd cd 64 77 3c
       -0.06475447 -0.0663903 -0.06412976 0.015099716
0000a0 af 87 05 3d 14 94 50 bd b8 3c c1 bd 3b a3 ca bd
       0.0326001 -0.05092247 -0.09435409 -0.09894415
0000b0 3c 72 5f bd 1b e2 6b bd a6 f1 74 3c 00 2f c1 bd
       -0.0545523 -0.057588678 0.014950192 -0.09432793
0000c0 14 c7 90 bd 04 29 96 bd 1b 7c 3d bd 5c cb 39 3d
       -0.07069221 -0.07332042 -0.046260934 0.045359954
0000d0 57 c8 a1 3d 9e d0 68 3c 4c cc 4d bc 89 e3 a5 3a
       0.0789954 0.014209894 -0.012560915 0.0012656312
0000e0 23 9a 94 bd 51 37 78 bd 52 8d 57 bd 8c e7 48 bd
       -0.07255962 -0.06059963 -0.052625008 -0.049048945
0000f0 f5 bf 5a bd d3 bc d1 bc f9 ae 12 bd 9d 8e 86 3b
       -0.05340572 -0.025602734 -0.0358114 0.0041063563
000100 57 81 a0 bc 81 5f 75 bc 9b ef c9 bd cf 74 8a bd
       -0.019592924 -0.014976383 -0.09860154 -0.06760561
000110 fd e4 b5 3c 6d a2 67 3d 09 62 4b bc 69 87 dd 3c
       0.022203917 0.056551386 -0.01241351 0.027042108
000120 61 af 01 3d 75 18 a4 39 4a 58 57 3d 2a d4 d3 bd
       0.031661395 0.0003129874 0.052574433 -0.103432015
000130 f8 89 c3 3c f0 92 95 bc ed b6 a8 bd 86 2d 9c bd
       0.0238695 -0.018258542 -0.08238015 -0.076258704
000140 6f 12 b9 bd 98 5e b3 bd 9a da 93 bd d6 e8 0b bc
       -0.09036719 -0.08758277 -0.07219429 -0.008539399
000150 78 3d 85 bd b8 2e f9 bc 67 c2 2f bc f3 8c 5a 3d
       -0.06505865 -0.030417785 -0.0107275015 0.053357076
000160 89 ee f8 bb d4 99 27 bb 14 c3 88 bd eb 99 8d bd
       -0.007596795 -0.0025573866 -0.06677833 -0.06914123
000170 08 9d 59 bd 79 dd b6 3c 77 01 a9 bd b8 7f 10 bd
       -0.053128272 0.022322403 -0.082522325 -0.035278052
000180 71 02 86 bd 03 e5 f4 3c aa 04 a3 3c 53 fb b4 bd
       -0.065434344 0.029894358 0.019899685 -0.08836999
000190 73 a4 aa bc 6a 8f 97 bc 53 88 58 3d 63 f1 e8 3c
       -0.020830369 -0.018501002 0.052864384 0.028435415
0001a0 10 60 aa bd b5 a1 c2 3c 43 5e 94 bd f8 37 27 bd
       -0.08319104 0.023758749 -0.072445415 -0.04082486
0001b0 09 85 eb 3b 80 39 87 bd 03 b7 55 bc 7a de 8a 3d
       0.00718749 -0.06602764 -0.013044122 0.06780715
0001c0 81 92 86 bd c3 9f b7 3c 23 8a 48 3d 27 55 b0 bd
       -0.06570912 0.022415048 0.048959862 -0.086099915
0001d0 73 7e 8f bd 5c cb 8f 3c 22 c6 11 3d a8 2a 1c bd
       -0.0700654 0.017553024 0.035589345 -0.038126618
0001e0 54 82 8d bc cc 33 85 3d 14 e9 42 3c e7 7c a9 bc
       -0.01727406 0.0650402 0.0118963905 -0.02068944
0001f0 75 d6 1a 3d 45 1d be 39 60 14 05 bd 41 9e 83 bd
       0.03780218 0.00036261432 -0.032490134 -0.06426669
000200 e6 2f f4 3c 8f 36 f3 bb 8c 84 9d bd ab 9f a4 bd
       0.029807996 -0.0074222754 -0.07691297 -0.08038267
000210 a6 c3 26 bd 4c 16 8c bd fe 93 60 3d 41 e4 6c 3c
       -0.04071393 -0.0684019 0.054828636 0.014458717
000220 35 81 eb 3c 5a 3e 0f 3d 60 22 af bd 64 ac f0 bd
       0.028748134 0.034971572 -0.085514784 -0.11751631
000230 bd d5 d8 bc da 19 8e 3c 84 50 28 bb 76 81 aa bd
       -0.026469106 0.017346311 -0.0025682757 -0.08325474
000240 b3 d0 60 bc 43 6f 0f bd a7 ab 06 be f0 9d 71 bd
       -0.013721633 -0.035018217 -0.13151418 -0.05898851
000250 0c ab 0e 3c f9 ae 3a 3d 8f e4 44 3d ae 62 cb bc
       0.008707773 0.045577023 0.048069533 -0.024827328
000260 97 10 00 be b5 c8 5e bd 2c 54 0a 3e df 9a d1 bd
       -0.12506329 -0.054390628 0.13508672 -0.102346174
000270 cf 64 69 3d 3c 84 ae ba ff 27 5a 3c 3c 51 03 3d
       0.056980904 -0.0013314555 0.0133152 0.032059893
000280 80 76 86 bd 27 a6 db bc f9 64 fc 3d 9d f1 c2 3d
       -0.06565571 -0.026812626 0.123239465 0.0951874
000290 38 a2 f4 3c f2 2f 27 bc 5e 89 b3 ba 6b de 29 bd
       0.029862508 -0.010204302 -0.0013697555 -0.04147188
0002a0 fc 4a 4d bd 37 94 b5 3c c2 90 13 be 85 ff a2 3d
       -0.05012034 0.0221654 -0.1441069 0.07958893
0002b0 b0 76 95 bd 14 31 e6 bd 25 a7 6c 3d 44 1d 88 bd
       -0.072980285 -0.1123983 0.05777659 -0.06646207
0002c0 b8 5b 14 3d 8a c9 c9 3c 2d ca c0 3c e6 4f 8e bb
       0.036220282 0.024632234 0.023533905 -0.0043430207
0002d0 0f 5b 4a 3d f7 1b f0 bb db 33 d7 bd c2 1f 82 bc
       0.049403246 -0.0073275524 -0.105079375 -0.015884284
0002e0 f4 38 e6 bc db e2 6a bd c5 05 78 3d 37 75 85 3d
       -0.02810333 -0.057345252 0.060552377 0.065164976
0002f0 c7 1f 25 bd b9 89 21 be c3 eb 8f 3c 9f ec a2 3c
       -0.04031351 -0.15775193 0.017568475 0.01988822
000300 11 ef f9 3b 01 63 a9 3d 36 28 42 3e d8 9e 57 bc
       0.007627376 0.082708366 0.18960652 -0.01316043
000310 dc 98 d8 3b ed 51 a5 bc 0d 23 eb bc 95 58 ac 3d
       0.006610019 -0.020180667 -0.028703237 0.08415333
000320 08 29 d8 3d ab bc 03 3d 60 66 00 3e 38 1e 10 be
       0.10554701 0.03216235 0.12539053 -0.14074028
000330 43 9e a2 3d ad c0 d1 3c 36 eb 18 3d e3 87 bb 3d
       0.07940342 0.02560457 0.03733369 0.09156778
000340 b9 56 87 3d c1 dc dc bd d8 14 64 bd cd e2 bc 3a
       0.06608338 -0.10784293 -0.05568394 0.0014410854
000350 ff 24 96 3d 9a 83 93 3d ff a8 ce 3c 7e e0 98 bd
       0.07331275 0.072028354 0.025227068 -0.074646935
000360 4c 92 eb bd c7 48 8b bd 5c f4 97 bd 2a 1c c9 3d
       -0.11502513 -0.068009906 -0.07419655 0.09819825
000370 4d 24 5b bd f1 a7 b9 3d b2 ce b1 bd 8d f8 a5 bc
       -0.053501416 0.090652354 -0.08682002 -0.02026012
000380 ce 7e 91 3b d0 ed 72 3d ab 15 3c bd e2 22 bb 3d
       0.004440165 0.059308827 -0.0459191 0.09137513
000390 0c 3b 29 be 4e d9 74 3d 1e 9d c0 3c 6c 90 77 3d
       -0.16526431 0.05977755 0.02351242 0.060440466
0003a0 21 42 84 bc 19 ca 88 bd ca 2a 03 3e e7 54 d6 3c
       -0.016144814 -0.06679172 0.12809291 0.026163531
0003b0 0c 15 51 bd 60 fd 87 3d e4 a3 ab bd e1 fd 0d bb
       -0.051045462 0.06640124 -0.08380869 -0.0021666216
0003c0 0d 53 13 3e 99 29 ab 3d 0d 91 bb bc 10 28 65 3d
       0.1438715 0.083575435 -0.022896314 0.05594641
0003d0 ef a6 da bc af b5 2e bd ec e3 8b bd 9d 2c ec 3c
       -0.026690928 -0.042653736 -0.06830582 0.028829867
0003e0 91 88 98 bd 25 7c 24 bd de e5 33 bc 50 08 6e bc
       -0.07447923 -0.040157456 -0.010980098 -0.014528349
0003f0 7e 69 f4 3b 65 84 8d bc d8 c2 fd bd 66 b5 fb bd
       0.0074588647 -0.017275045 -0.12390679 -0.122904584

net.3.bias f4 [64]
000000 ea e9 10 bd d2 92 7d 3d 4f 7c ea 3d ee 49 c8 bc
       -0.035379328 0.061907597 0.11449491 -0.024449315
000010 13 08 90 3c 3c 5c 3d 3c 49 ad 13 3e 13 a4 86 3d
       0.017581975 0.011557635 0.14421572 0.065742634
000020 ad 61 53 bd 93 34 a7 3d 0d 1f 5d bb 4d 78 8d 3c
       -0.051606823 0.081643246 -0.0033740432 0.017269278
000030 a6 90 d5 bd 18 45 ad 3c e8 1e 37 3d 91 ef 1c 3e
       -0.1042798 0.02115111 0.04470721 0.15325762
000040 be 39 66 3d ca 32 06 3e e1 ac 94 bc ea 6f aa 3d
       0.05620741 0.13105312 -0.018148841 0.08322127
000050 14 40 eb 3c f3 a1 6f 3d ea e1 8c 3d 73 bc 4f ba
       0.028717078 0.058504056 0.06879027 -0.00079245045
000060 e4 b7 d8 3c fe b3 2a 3e 4d 35 1a 3e 06 8c f7 3d
       0.026454873 0.16670224 0.15059395 0.12087254
000070 05 29 11 3e f1 28 87 3c 07 7d 0d 3d 57 24 88 bd
       0.14175804 0.016499015 0.034543063 -0.06647556
000080 25 66 ab 3d 9d c7 42 3d 60 d2 87 3c 7e 8f 23 3d
       0.08369092 0.047553647 0.016579807 0.039931767
000090 f8 e6 92 bd ab 28 d0 3d 76 39 c9 3d 18 ae d2 bd
       -0.0717296 0.10164007 0.09825413 -0.10287112
0000a0 9a 45 e0 bd 88 fd b5 3d cc a8 ca 3d 85 4e 42 bd
       -0.109507754 0.08886248 0.09895477 -0.047438163
0000b0 10 c2 62 3d c9 a9 5d 3d 39 df 26 3e 96 db e9 bc
       0.055360854 0.054116998 0.1629609 -0.02854709
0000c0 94 ea 9e 3c b6 6b dd 3d cc 39 d2 bb 44 b4 51 bd
       0.019398965 0.1081156 -0.0064155813 -0.051197305
0000d0 f1 21 b4 3c 86 f5 91 3c 1b 0e bd 3c c4 a1 b4 3d
       0.02198884 0.01781727 0.023078015 0.08819917
0000e0 28 a6 da 3d 8f b7 fa 3d 5d 47 3b bd c3 f4 ef 3d
       0.10676223 0.12242042 -0.045722354 0.117166065
0000f0 6e 0c 10 3e 5a 72 56 bc 10 3b cd 3d 58 26 94 3d
       0.14067242 -0.013088787 0.10021031 0.07233876

net.6.weight f4 [2, 64]
000000 45 a1 20 3d 65 94 3e 3e 8c 79 9e be 93 a9 5a bd
       0.0392163 0.18611296 -0.30952108 -0.053384375
000010 a4 5f 00 be 50 0e b8 3d 9d 35 0f 3e f8 63 d3 3d
       -0.12536484 0.08987105 0.13985296 0.10321802
000020 e8 a2 a0 3c b3 2e 7f be 7c 61 22 3e a2 9b 1c 3e
       0.01960893 -0.24920158 0.158575 0.15293744
000030 c2 be 98 bd 4a b0 02 3e 0a f0 7c 3d b0 6b ec 3d
       -0.07458259 0.12762561 0.061752357 0.11543977
000040 1e 11 8f bd f0 23 a8 3c fa 1b f6 bd 1a 56 28 be
       -0.06985687 0.020524949 -0.12017055 -0.16439095
000050 95 50 1e 3e c1 42 76 be ef 47 f4 bd 4a 6d 5a 3d
       0.15460427 -0.24048902 -0.11927783 0.053326882
000060 98 c8 07 be d6 52 b1 3d e2 25 aa 3d 40 c9 68 3d
       -0.13260114 0.08658378 0.08308007 0.056832552
000070 1f 8c 33 3c 9f 62 2a be 4a 04 32 be 73 d9 77 bd
       0.0109587 -0.16639183 -0.17384449 -0.06051011
000080 04 15 3a 3e a3 26 2b be 0b 12 75 3d 21 85 19 3d
       0.1817208 -0.16713957 0.05983166 0.037480477
000090 4f 2d 36 be ad e5 18 3d b1 0d 42 be 7f be cd 3d
       -0.17790721 0.03732841 -0.18950535 0.100461
0000a0 f5 2d 84 bd a0 76 21 3e c9 f9 32 be f0 c4 66 be
       -0.06454078 0.15767908 -0.17478098 -0.22536063
0000b0 00 dc 41 be 50 f4 9c bd ee 9d ec 3c b2 5b 5f 3e
       -0.1893158 -0.076637864 0.0288839 0.21812323
0000c0 a9 07 10 be 90 b0 f7 bc b0 44 5d 3e 89 b4 c4 3d
       -0.14065422 -0.030235559 0.21608233 0.09604747
0000d0 61 1b 70 be 2a 27 1d 3e d6 fe c7 3d 08 50 e8 3d
       -0.23447944 0.15346971 0.09765403 0.1134339
0000e0 45 bc 41 bd ce 08 af 3d a3 17 69 be bd bb 96 3d
       -0.04729869 0.08546601 -0.22762923 0.07360027
0000f0 36 65 19 3e 8e 22 12 be 54 41 55 be 04 94 16 3e
       0.14980015 -0.14270994 -0.20825702 0.14704901
000100 db 01 24 bd a0 81 38 be 39 81 57 3e bf e9 cc 3d
       -0.040040832 -0.18018198 0.21045388 0.10005521
000110 1e 87 4d 3e 61 01 19 be 84 32 17 be 7e c9 77 be
       0.20071074 -0.14941932 -0.14765364 -0.24197957
000120 4e 79 5a 3d db 17 30 3e d8 26 02 be 82 dd b9 bd
       0.05333834 0.171966 -0.1271013 -0.090754524
000130 40 43 49 3d f0 26 5d be 35 a9 98 3c cd 6a 09 bd
       0.0491364 -0.21596885 0.018635372 -0.03354912
000140 e7 8a 7e 3e d0 aa 4e be 84 05 c7 3d b1 7e ee 3d
       0.24857675 -0.20182347 0.09717849 0.11645258
000150 c1 de 43 be 8f 25 db 3d c4 88 6d 3e 7a 10 cd bd
       -0.19127943 0.10700523 0.23196703 -0.10012908
000160 cc 1b 35 3e 25 df d8 bd 19 90 08 be 7d 3d 23 be
       0.17686385 -0.105894364 -0.13336219 -0.15941425
000170 82 c5 40 be e0 85 c5 3d db c4 89 3d 34 d8 3c 3e
       -0.18825343 0.09644675 0.06727 0.1844185
000180 d3 39 3f be 8c 8e ea 3d 9f f9 14 be eb c5 c9 bd
       -0.18674402 0.1145297 -0.14548348 -0.09852203
000190 1c f4 ab 3d 78 ed 3b be cc 37 09 3e 3e b7 e1 3d
       0.083961695 -0.18352306 0.13400191 0.11021279
0001a0 d9 43 67 3d d0 4c e5 bc c7 66 1a 3e 87 58 5f 3e
       0.05646119 -0.027990729 0.15078269 0.21811114
0001b0 11 07 4c 3e b6 d9 27 3e 6d 99 9c bc ee 96 0c be
       0.1992457 0.16391644 -0.019116128 -0.1372945
0001c0 bc fd 90 3c 62 11 20 be 48 c8 6b be 32 48 94 3d
       0.017699115 -0.15631631 -0.2302562 0.07240333
0001d0 89 84 13 3d d0 64 cb bd 78 c7 5e bd 6a 7d ac bd
       0.036015067 -0.09931338 -0.054389447 -0.08422358
0001e0 1b 7a 11 be be 8e 5a be 11 fe 51 3e df 10 47 be
       -0.14206736 -0.21343514 0.20507075 -0.1944003
0001f0 c8 f7 0f be d1 1d e8 ba f0 d4 62 3e 98 fa ea bd
       -0.14059365 -0.0017709081 0.22151542 -0.11473578

net.6.bias f4 [2]
000000 62 ee fb 3c 84 37 0e 3b
       0.030753318 0.002170057
